InvariantStock-main/best_models/best_predictor_InvariantStock_0.pt (torch, 82376 bytes, 70 tensors)

feature_extractor.linear.weight f4 [20, 20]
0	0xbe392eb4	-0.18084222
1	0x3e3552e8	0.17707407
2	0x3dbb2ce5	0.09139422
3	0x3dc63fde	0.096801504
4	0x3e25208d	0.16125698
5	0xbe571050	-0.21002316
6	0xbe393d2b	-0.1808974
7	0x3dadcae0	0.08485961
8	0x3e459cf1	0.1929815
9	0x3dcea06c	0.10089192
10	0x3caaec29	0.020864563
11	0x3e5e5d09	0.21715178
12	0xbdc85955	-0.09782664
13	0x3e44f430	0.19233775
14	0x3e3b2366	0.18275222
15	0xbe3278b9	-0.17428865
16	0xbca0de00	-0.019637108
17	0x3e3df9ed	0.1855237
18	0x3e541bbf	0.2071371
19	0xbd360a50	-0.04444343
20	0x3e4854b3	0.1956356
21	0xbe39b935	-0.18137057
22	0x3d77df95	0.06051596
23	0x3d2484ed	0.04016583
24	0x3d82e671	0.063916095
25	0x3df80acf	0.121114366
26	0x3d1d9491	0.038471762
27	0x3deb800e	0.11499034
28	0x3e33ffc5	0.17578037
29	0x3e01c63d	0.12673278
30	0x3e126788	0.14297307
31	0x3e63d9fe	0.22251126
32	0x3e339a07	0.17539226
33	0x3c5c33b8	0.013440065
34	0xbe20b2e2	-0.15693238
35	0x3dc7671d	0.09736464
36	0x3cb9bfa9	0.022674398
37	0x3e511c45	0.2042094
38	0xbd83ef55	-0.06442133
39	0x3bef885d	0.007309957
40	0xbe55c5ce	-0.20876238
41	0xbddb4c10	-0.10707867
42	0x3e24cc2b	0.16093509
43	0xbe142006	-0.14465341
44	0xbdeaf931	-0.11473311
45	0x3c1807c5	0.009279196
46	0x3c295063	0.010334107
47	0x3e23bdba	0.15990344
48	0xbe156801	-0.14590456
49	0x3d2575fa	0.040395714
50	0xbe0f9b0a	-0.14023986
51	0x3de4b51f	0.111673586
52	0x3dafa7a6	0.08576898
53	0xbd066277	-0.032808747
54	0x3e23cb74	0.1599558
55	0x3e1ffe76	0.15624413
56	0xbe024e30	-0.12725139
57	0xbe46c034	-0.19409257
58	0x3de109ad	0.10988174
59	0xbe3b9332	-0.1831787
60	0x3ce51b8f	0.027967243
61	0x3c991187	0.018685116
62	0x3da1ac84	0.07894233
63	0x3de4e87e	0.11177157
64	0xbdf417d7	-0.119186096
65	0x3c645fac	0.013938826
66	0xbe06ceea	-0.13164869
67	0x3e21cc73	0.15800647
68	0x3d86aee2	0.06576325
69	0x3e47e1bf	0.19519709
70	0x3e34bcf6	0.17650208
71	0x3dccd0f8	0.10000795
72	0x3e10cae1	0.14139892
73	0x3962a748	0.00021615357
74	0xbe2b14df	-0.1670718
75	0xbdbc5ba5	-0.09197167
76	0xbdb41cd7	-0.08794563
77	0xbdc79fec	-0.097472996
78	0xbde7a2d1	-0.11310352
79	0xbe5f8321	-0.21827365
80	0x3d2a98c8	0.04164961
81	0xbe11484d	-0.14187737
82	0xbe47a6fe	-0.19497296
83	0x3d8e44d6	0.06946723
84	0xbe567a17	-0.20945011
85	0x3d469322	0.04848016
86	0xbc5573cc	-0.013028096
87	0x3df1b513	0.11802115
88	0x3e3db085	0.18524368
89	0x3de1b267	0.11020356
90	0xbe37b75d	-0.17941041
91	0xbcaf1699	-0.02137308
92	0x3dd11c43	0.102104686
93	0xbe33d0e4	-0.17560154
94	0xbe5d5cc6	-0.21617422
95	0xbe4d489b	-0.20047228
96	0xbe2aae13	-0.16667967
97	0x3dc66f09	0.09689147
98	0xbd87e690	-0.06635773
99	0x3db9a54a	0.090647295
100	0xbdf3e414	-0.11908737
101	0xbd67b8c9	-0.05657271
102	0xbd088e5a	-0.033338882
103	0x3e5c202b	0.21496646
104	0x3cf21475	0.02955077
105	0xbe3b30dd	-0.18280359
106	0x3e30b1a1	0.1725526
107	0x3c4cb62a	0.012494603
108	0x3e4eaf09	0.20183958
109	0xbafab569	-0.0019127551
110	0xbe395e44	-0.18102366
111	0x3d17bbf0	0.037044466
112	0xbdfad75f	-0.1224811
113	0xbe1d69e1	-0.15372421
114	0x3cc006ab	0.02344068
115	0x3dac68c4	0.0841842
116	0xbdee4572	-0.116343394
117	0xbd82f330	-0.063940406
118	0xbdb29323	-0.0871947
119	0x3e2ccac5	0.16874225
120	0x3d638723	0.0555488
121	0xbd4638e1	-0.048394088
122	0xbd92c153	-0.0716578
123	0xbda68177	-0.08130162
124	0xbbfbb7e7	-0.007681835
125	0x3d5d002e	0.05395525
126	0xbdb0c474	-0.086312205
127	0xbdbe80d6	-0.09301917
128	0xbe295a59	-0.16538371
129	0x3e4e1564	0.20125347
130	0xbdbcb7d0	-0.09214747
131	0x3e497d88	0.19676793
132	0xbcb80e6d	-0.022467816
133	0xbd51886b	-0.05115549
134	0xbda3138e	-0.07962714
135	0xbb39c3cc	-0.0028345464
136	0xbc197fa7	-0.009368814
137	0x3d68bf78	0.056823224
138	0xbdd8cc57	-0.1058585
139	0x3e4531ac	0.1925723
140	0x3d52894a	0.05140046
141	0xbd143959	-0.036187503
142	0xbe1c3099	-0.15252914
143	0x3d619063	0.05506934
144	0xbc452e74	-0.012035001
145	0xbd0a2d41	-0.033734564
146	0xbe50f419	-0.20405616
147	0x3daf6ce2	0.085656896
148	0x3cd893a4	0.026437588
149	0x3e0b10ec	0.13580674
150	0xbe007db1	-0.12547947
151	0x3e0a3a09	0.13498701
152	0x3e2f7805	0.17135628
153	0x3d4fa3fa	0.05069349
154	0x3e2c77e7	0.16842614
155	0xbe5b17fc	-0.21395868
156	0x3e14b8d1	0.14523627
157	0xbd90032c	-0.07031855
158	0x3da13127	0.07870703
159	0x3e275c13	0.16343717
160	0x3cf5b873	0.029995179
161	0xbb7412e5	-0.0037242707
162	0x3dc96b9a	0.098349765
163	0x3e5bd95b	0.21469633
164	0xbe2379e2	-0.15964463
165	0x3e555d0e	0.20836279
166	0x3d10bdf0	0.03533739
167	0x3df1a20d	0.11798487
168	0xbbe9dbd0	-0.0071367994
169	0xbd3d5b85	-0.046229858
170	0xbd109aea	-0.035303988
171	0xbd49e6f6	-0.049292527
172	0xbe45e26d	-0.19324656
173	0x3e239f90	0.15978837
174	0x3de3d7f9	0.11125178
175	0xbe62dcce	-0.22154543
176	0x3ddf2718	0.108961284
177	0xbe2c9156	-0.16852316
178	0xbdbe46a5	-0.09290818
179	0x3e44ac62	0.19206384
180	0xbca1e53d	-0.01976263
181	0x3e122f04	0.14275748
182	0x3e0443f0	0.12916541
183	0x3cabb6dc	0.020961218
184	0xbe5b8d22	-0.21440557
185	0x3e2074cb	0.15669553
186	0xbdbf8e69	-0.093533345
187	0xbe15f8a7	-0.14645635
188	0xbd9512d1	-0.072789796
189	0x3e38580f	0.18002342
190	0xbd7adb08	-0.06124404
191	0x3dc14ce9	0.094384976
192	0x3cc58aea	0.024114091
193	0xbddbcb41	-0.10732127
194	0x3d07d96d	0.033166338
195	0x3e34598c	0.17612284
196	0x3e3a9e23	0.18224387
197	0xba16087e	-0.00057233113
198	0x3ca842c6	0.020539653
199	0x3e097c43	0.13426308
200	0xbda7f4dd	-0.08201001
201	0xbd2f9b81	-0.04287291
202	0x3dee9800	0.116500854
203	0x3e211011	0.15728785
204	0x3ce239b6	0.02761541
205	0xbcb492cb	-0.022042653
206	0xbe442888	-0.19156086
207	0xbc8cb780	-0.017177343
208	0xbe17f550	-0.14839673
209	0xbd31f618	-0.043447584
210	0xbb756bb2	-0.0037448225
211	0x3daf5eda	0.085630134
212	0x3e4446bf	0.19167612
213	0x3c731068	0.0148354545
214	0x3d0c5831	0.034263793
215	0xbdcce93f	-0.10005426
216	0xbe26ab25	-0.16276224
217	0xbe4c81f9	-0.19971456
218	0x3d44c6a4	0.048041
219	0x3d01de4e	0.031706147
220	0x3e49c7b3	0.19705085
221	0x3e03ed75	0.12883551
222	0x3c033bb1	0.008009837
223	0xbd927699	-0.07151527
224	0x3e1e7d62	0.15477517
225	0xbe46c675	-0.19411643
226	0xbbdd2bb3	-0.006749594
227	0x3da12488	0.07868296
228	0xbe6033a7	-0.21894704
229	0x3e309c5c	0.17247146
230	0xbd68b86d	-0.056816507
231	0x3e440dcc	0.19145888
232	0xbd204037	-0.03912374
233	0xbe093913	-0.13400678
234	0x3ddf0338	0.10889286
235	0xbe139103	-0.14410786
236	0xbe21e2bd	-0.1580915
237	0xbd89b0aa	-0.06723149
238	0x3e0cb71e	0.13741729
239	0x3d971a77	0.07378095
240	0x3e3361ef	0.17517827
241	0xbd9be191	-0.07611383
242	0xb7987ff5	-1.8179397e-05
243	0xbd95e3a4	-0.0731881
244	0x3e5a6815	0.21328767
245	0x3c8956a6	0.01676495
246	0xbe554301	-0.20826341
247	0x3d3f248c	0.046665713
248	0xbe2054f6	-0.1565741
249	0x3cf827ec	0.030292474
250	0x3d779339	0.060443137
251	0xbde1fb37	-0.110342436
252	0xbe4bc466	-0.19899139
253	0xbcb6dc07	-0.022321714
254	0xbe1c4186	-0.1525937
255	0x3e5fd8c8	0.21860039

feature_extractor.linear.bias f4 [20]
0	0xbe53f432	-0.20698622
1	0x3e541c5a	0.2071394
2	0x3e49c717	0.19704853
3	0x3dbf87e9	0.09352095
4	0x3e2b8af5	0.16752227
5	0x3d158229	0.036501084
6	0x3de217d3	0.110397
7	0x3dec8a78	0.11549848
8	0xbe4c4818	-0.19949377
9	0x3d6ab46e	0.057300977
10	0xbc054f34	-0.008136559
11	0xbe5d29fb	-0.21598046
12	0x3e31c221	0.1735921
13	0xbd906230	-0.07049978
14	0x3cfc8c54	0.030828632
15	0xbde6f802	-0.112777725
16	0x3e11e7d3	0.1424859
17	0x3c642838	0.0139256045
18	0xbdac3bfa	-0.08409877
19	0xbdcd7536	-0.10032122

feature_extractor.gru.weight_ih_l0 f4 [60, 20]
0	0x3d659c38	0.056057185
1	0xbe48932f	-0.19587396
2	0x3dc27913	0.09495749
3	0xbe4194b6	-0.18904385
4	0xbe0ff26c	-0.1405732
5	0x3cfaaa83	0.030598884
6	0xbdf6856a	-0.120371655
7	0x3d9440c8	0.072389185
8	0xbe13512a	-0.1438643
9	0xbd94e87d	-0.07270906
10	0x3db722c2	0.089421764
11	0x3dee4108	0.116334975
12	0xbd531fce	-0.051544003
13	0x3d9da43c	0.07697341
14	0xbe326738	-0.17422187
15	0xbd384a44	-0.0449927
16	0x3e0f4ac7	0.13993369
17	0xbc9fb2de	-0.01949447
18	0xbe4841ab	-0.195563
19	0xbcb26895	-0.021778384
20	0xbd08ceeb	-0.033400457
21	0x3d9d2dce	0.07674752
22	0xbd3dfbcb	-0.046382707
23	0xbe1def3a	-0.15423289
24	0x3d3505b3	0.04419489
25	0x3e28f229	0.16498627
26	0xbd593649	-0.053030286
27	0x3d84acda	0.06478281
28	0x3d184dad	0.037183452
29	0x3d10b8e1	0.035332564
30	0xbd0ac17a	-0.03387592
31	0xbc614651	-0.013749675
32	0xbe5c95c7	-0.2154151
33	0x3e07c896	0.13260111
34	0xbe094caf	-0.13408159
35	0xbe32576c	-0.17416161
36	0xbe097123	-0.13422064
37	0x3d82f594	0.063944966
38	0xbd383595	-0.044972975
39	0xbe06233d	-0.1309938
40	0x3dfe9587	0.12430864
41	0xbde11d4d	-0.10991917
42	0xbe2043e8	-0.15650904
43	0x3ddc9ea2	0.10772444
44	0xbdbf6f6a	-0.093474224
45	0xbe1668e3	-0.14688449
46	0xbd8a65e2	-0.06757714
47	0xbde05219	-0.10953159
48	0x3b2a6c5e	0.0026004533
49	0xbdc5f943	-0.096666835
50	0x3bfcc7ce	0.0077142483
51	0xbc624c62	-0.013812156
52	0x3e1d89d9	0.15384616
53	0x3e0f3d8b	0.1398832
54	0xbddeb949	-0.10875184
55	0x3daedd7b	0.08538338
56	0xbe4bd807	-0.19906627
57	0xbe336ef7	-0.17522798
58	0xbe1c3d73	-0.15257816
59	0xbdc424a4	-0.09577301
60	0xbe5a6874	-0.21328908
61	0x3e054c65	0.13017423
62	0x3e402bcb	0.18766706
63	0xbe325621	-0.17415668
64	0xbe515956	-0.20444235
65	0xbd89dcac	-0.06731543
66	0x3e32f552	0.17476395
67	0x3d78ae48	0.060713083
68	0x3c4f5ff1	0.012657152
69	0x3e5a97e8	0.2134701
70	0x3e369e84	0.17833906
71	0x3ddae925	0.10689
72	0xbde986e9	-0.11402685
73	0xbd678937	-0.056527343
74	0xbd165e63	-0.036711108
75	0xbd23062b	-0.039800804
76	0x3d5870e6	0.052842043
77	0x3e0fc648	0.14040482
78	0xbe0106c0	-0.12600231
79	0xbe5ec0b9	-0.21753205
80	0xbe480014	-0.1953128
81	0x3d72b5bb	0.059255343
82	0xbe140632	-0.14455488
83	0x3de2f98e	0.11082755
84	0x3d90639d	0.0705025
85	0x3d891562	0.066935316
86	0xbdae37f1	-0.08506764
87	0x3de5b51f	0.11216187
88	0x3e1dd583	0.1541348
89	0x3d931a27	0.071827225
90	0x3c5a30fa	0.013317341
91	0x3dc4e7b5	0.09614507
92	0x3cd371c8	0.025811091
93	0x3d61c8ae	0.055123024
94	0x3db80467	0.08985215
95	0x3e4ce239	0.20008172
96	0xbd18b93b	-0.037286025
97	0x3de88c27	0.11354857
98	0x3e30bbee	0.1725919
99	0xbe39798a	-0.1811277
100	0xbb9b8e22	-0.004747168
101	0xbe3f9ba9	-0.18711723
102	0xbe2b0162	-0.16699746
103	0x3e11afe1	0.14227249
104	0xbe308af7	-0.17240511
105	0x3e56505e	0.20929095
106	0x3e4b44ee	0.19850513
107	0xbe187008	-0.14886487
108	0xbe4b3be8	-0.19847071
109	0xbd14dba8	-0.036342293
110	0xbe4f3726	-0.20235881
111	0x3ded160a	0.11576469
112	0xbd9b8f48	-0.07595688
113	0x3d4d9db6	0.050199233
114	0xbb393a81	-0.002826363
115	0xbca4d16e	-0.020119395
116	0xbe0034b8	-0.1252011
117	0x3d746a85	0.059671897
118	0x3daccd35	0.08437578
119	0x3c8cdb0e	0.017194297
120	0xbc343756	-0.010999521
121	0xbdae0bf2	-0.08498372
122	0xbdcb90ef	-0.09939753
123	0x3d822a6e	0.06355749
124	0x3dbb187e	0.09135531
125	0xbdbc94ae	-0.09208046
126	0xbdc931be	-0.09823941
127	0x3e418af1	0.18900658
128	0x3e12f034	0.14349443
129	0xbe596d6b	-0.21233146
130	0xbe05288e	-0.13003752
131	0xbbd9ec55	-0.0066504874
132	0xbdbfc75c	-0.09364197
133	0x3cadc15f	0.02121037
134	0xbda93d86	-0.08263688
135	0xbe64ed98	-0.2235626
136	0xbe2592a9	-0.16169228
137	0x3e11161f	0.14168595
138	0x3d1ef98e	0.038812213
139	0x3e53c079	0.20678891
140	0x3e3eb3f4	0.18623334
141	0xbcc46091	-0.023971828
142	0x3e01ebb5	0.12687571
143	0xbd10d8d4	-0.035363033
144	0x3de2b9a8	0.11070567
145	0xbe3279dd	-0.174293
146	0xbd9dfc39	-0.07714123
147	0x3bea8ae6	0.0071576713
148	0x3d14c00b	0.03631596
149	0x3d9d9be4	0.076957494
150	0x3e4f223c	0.20227903
151	0x3e431ab3	0.19053154
152	0xbe1ddf0b	-0.15417115
153	0xbd0524b1	-0.032505695
154	0xbc09aae4	-0.00840256
155	0x3da801d8	0.08203477
156	0xbe1abc34	-0.15110856
157	0x3dc25259	0.09488363
158	0x3d8fb7c2	0.07017471
159	0x3e0906ae	0.13381454
160	0xbd8435cc	-0.064555734
161	0x3d04065d	0.03223263
162	0x3df6b8c2	0.120469585
163	0x3e4dc0b4	0.20093042
164	0xbd877584	-0.06614211
165	0x3dfce53a	0.12348409
166	0xbda0a326	-0.07843618
167	0x3dde2d4f	0.10848486
168	0xbd91b92d	-0.071153976
169	0x3d298ca7	0.041393902
170	0xbe365b86	-0.17808351
171	0x3d90f837	0.07078593
172	0xbe23107a	-0.15924254
173	0xbdf9efbb	-0.12203928
174	0xbdac9ad0	-0.08427966
175	0xbd98e16c	-0.07464871
176	0x3e2d890f	0.16946815
177	0x3e2feae8	0.17179453
178	0x3e044cbc	0.12919897
179	0xbdf7aa48	-0.120930254
180	0x3e2881da	0.16455784
181	0x3e560ded	0.2090375
182	0xbcf4980d	-0.02985766
183	0xbe037fd4	-0.12841731
184	0x3e37ed12	0.17961529
185	0x3e51c72d	0.20486136
186	0x3da1e9bd	0.0790591
187	0xbe609374	-0.21931249
188	0xbe1b431f	-0.15162323
189	0x3e1b3e0e	0.1516039
190	0xbe4e16b9	-0.20125856
191	0x3dc03633	0.09385338
192	0x3e0570df	0.13031338
193	0xbd8a537a	-0.06754203
194	0xbe5827c7	-0.21108924
195	0xbe460910	-0.19339395
196	0x3e3c85df	0.18410443
197	0x3dae3d27	0.08507758
198	0x3ddb2faa	0.107024506
199	0xbdec62d9	-0.11542291
200	0xbdb7a730	-0.08967435
201	0x3df56610	0.119823575
202	0xbe1c2e25	-0.15251978
203	0x3dedc03f	0.11608934
204	0xbc1aa595	-0.009438892
205	0x3e0981b4	0.13428384
206	0xbe02d6fe	-0.12777326
207	0xbdaf8313	-0.08569922
208	0xbe2b400a	-0.16723648
209	0x3df99c81	0.12188054
210	0xbd39f374	-0.04539819
211	0xbd9d963b	-0.0769467
212	0xbe5ee25c	-0.21766037
213	0x3e4163bf	0.18885706
214	0x3e51a2cc	0.20472258
215	0xbe0415f0	-0.12898993
216	0xbd22ba33	-0.039728355
217	0xbd974684	-0.07386497
218	0xbe105e2a	-0.1409842
219	0xbe2172ba	-0.15766421
220	0xbcf0ebf4	-0.029409386
221	0x3dd62df7	0.10457986
222	0xbe1983c8	-0.14991677
223	0x3e631ded	0.22179385
224	0xbd0d3744	-0.034476534
225	0xbe1ee380	-0.15516472
226	0xbe047b3d	-0.12937637
227	0x3e640d63	0.22270732
228	0xbd12a074	-0.03579755
229	0x3e01cc64	0.12675625
230	0x3cae56a1	0.021281542
231	0x3e3cd6e5	0.18441351
232	0xbe2a75c6	-0.1664649
233	0x3d91b69a	0.071149066
234	0x3dc470c0	0.09591818
235	0xbd826e0f	-0.06368648
236	0xbe093bb7	-0.13401686
237	0xbd2d5184	-0.042314067
238	0xbcb1147a	-0.02161621
239	0xbe057bb4	-0.1303547
240	0xbe3b312c	-0.18280476
241	0x3d9a8a7c	0.07545945
242	0x3ce178bd	0.027523393
243	0xbe0b67b2	-0.13613775
244	0xbd801776	-0.06254475
245	0xbc6314bc	-0.013859924
246	0x3dd3612a	0.10321267
247	0x3db24d4d	0.0870615
248	0x3e48d6b0	0.19613147
249	0x3cb6f0b6	0.022331577
250	0x3d8a25d2	0.06745495
251	0xbe2b2dc5	-0.16716678
252	0x3dc2b76f	0.095076434
253	0xbdc37b05	-0.095449485
254	0x3e27aa77	0.16373621
255	0x3d713b15	0.058894236

feature_extractor.gru.weight_hh_l0 f4 [60, 20]
0	0xbe1853d5	-0.1487573
1	0xbd9e0b63	-0.077170156
2	0xbe55b41b	-0.20869486
3	0x3e5c63a6	0.21522388
4	0x3d5b71fe	0.05357551
5	0x3e3b3de7	0.18285333
6	0xbe444daf	-0.19170259
7	0x3e5c741e	0.2152867
8	0x3e54f2b9	0.20795716
9	0x3e52a99f	0.20572518
10	0xbe0dca9d	-0.13846822
11	0x3e50266e	0.2032716
12	0xbe3f45cb	-0.18678968
13	0xbe258304	-0.1616326
14	0xbda0fd60	-0.078608274
15	0x3e604ede	0.21905085
16	0xbd80cfd3	-0.06289639
17	0x3db78dc1	0.08962584
18	0xbcd6c36f	-0.026216237
19	0x3de8269b	0.113354884
20	0x3e071106	0.13190088
21	0x3e4e7663	0.20162348
22	0x3e0512c5	0.12995441
23	0x3e38a76b	0.18032615
24	0x3e4e0129	0.2011763
25	0x3da5ab92	0.08089365
26	0x3e21a9b4	0.15787393
27	0x3e456edd	0.19280572
28	0x3dc8b9b5	0.09801046
29	0xbd940f96	-0.07229535
30	0x3e2c6074	0.16833669
31	0x3d117b64	0.035518065
32	0x3e0ce14d	0.1375782
33	0xbd8d6a8e	-0.06905089
34	0xbe54eb46	-0.20792875
35	0xbe0c714f	-0.13715099
36	0xbc36445e	-0.011124698
37	0xbe183661	-0.14864494
38	0xbdbec888	-0.09315592
39	0x3de63a32	0.112415686
40	0x3da52b5c	0.08064911
41	0xbd85dfe4	-0.065368444
42	0xbc14e725	-0.009088312
43	0xbe59a1f8	-0.21253192
44	0xbc3e26fa	-0.011605972
45	0xbc01b9f8	-0.007917874
46	0xbe0d8b57	-0.13822685
47	0x3e4f7c88	0.20262349
48	0xbde197e4	-0.11015299
49	0x3d01b82e	0.031669788
50	0xbe1b5e35	-0.15172656
51	0x3d3408f0	0.043953836
52	0xbe2c24be	-0.16810891
53	0x3ae876b6	0.0017735574
54	0x3dc88e94	0.097928196
55	0x3e3ea016	0.18615755
56	0x3cc228d4	0.023701109
57	0x3d560d9d	0.052259076
58	0x3d26f85e	0.040764205
59	0xbdeab54c	-0.11460361
60	0x3d793c30	0.060848415
61	0xbe44c6b3	-0.19216423
62	0xbd93e8c4	-0.07222131
63	0x3b98d0ae	0.0046635484
64	0xbd8bb3af	-0.06821381
65	0x3dc32faa	0.095305756
66	0xbe1f97f2	-0.15585306
67	0x3d9b4a0f	0.07582485
68	0xbe0640c5	-0.13110645
69	0xbe36f2d9	-0.17866077
70	0xbcfb1f75	-0.030654648
71	0xbc1c9c24	-0.009558711
72	0xbdbbe6d7	-0.091748886
73	0x3e5d9c56	0.21641669
74	0xbd873d2a	-0.06603463
75	0xbd656a94	-0.056009844
76	0x3cc9db79	0.024640786
77	0xbdb4ef8c	-0.088347524
78	0x3cf05c02	0.029340748
79	0x3e561f05	0.2091027
80	0xbc8ff698	-0.01757364
81	0xbdb23341	-0.08701182
82	0x3e11a51b	0.14223139
83	0x3d5bfe32	0.053709216
84	0x3dea5025	0.114410676
85	0x3d76f4be	0.060291998
86	0xbdfdc52b	-0.123911224
87	0xbe367723	-0.17818885
88	0xbd9cc027	-0.07653838
89	0xbe40b73e	-0.18819901
90	0xbe459098	-0.1929344
91	0x3e059e72	0.13048723
92	0xbc6db90d	-0.014509452
93	0xbbe48357	-0.0069736647
94	0xbe2dc3d3	-0.16969232
95	0x3defddb2	0.11712207
96	0x3e330b8b	0.17484872
97	0x3e0e2585	0.138815
98	0xbe08fbc7	-0.13377295
99	0x3cb6b786	0.022304308
100	0xbddb5261	-0.10709072
101	0x3dd49efb	0.103818856
102	0x3df4398d	0.119250394
103	0xbdee3fd0	-0.11633265
104	0xbe229886	-0.15878496
105	0xbe21ce9d	-0.15801473
106	0x3dc3876a	0.095473126
107	0x3d5ff71a	0.054679014
108	0x3e1fedbe	0.15618035
109	0xbd02b115	-0.03190716
110	0x3e32f9e4	0.17478138
111	0x3e5318d2	0.20614937
112	0xbe309f13	-0.17248182
113	0xbd1c54d6	-0.038166843
114	0x3cd361af	0.025803415
115	0x3e0ee29f	0.13953637
116	0xbe4c35b2	-0.19942358
117	0x3dc7ef5f	0.09762453
118	0x3c927ab1	0.01788077
119	0x3e289cc5	0.16466053
120	0xbe461d69	-0.19347157
121	0x3e39d51f	0.18147705
122	0x3e2872c9	0.16450037
123	0xbb5f51ff	-0.0034075973
124	0xbd7ad641	-0.061239485
125	0x3de493e3	0.1116102
126	0xbd88a1c0	-0.06671476
127	0xbd46e10f	-0.048554476
128	0xbe05d737	-0.13070379
129	0x3e54c9e8	0.20780146
130	0x3e1dc73c	0.15408033
131	0x3d105653	0.035238575
132	0x3c8ce0df	0.01719707
133	0xbe12a1cd	-0.14319535
134	0x3e36504d	0.1780407
135	0x3dc25bfe	0.09490202
136	0x3d932d82	0.07186414
137	0x3dada557	0.08478802
138	0xbe4af8ac	-0.19821423
139	0xbd9faf60	-0.07797122
140	0x3e1ac365	0.151136
141	0xbd8e93b3	-0.06961765
142	0x3e3f955b	0.18709318
143	0xbe237e59	-0.15966167
144	0x3e2ddb73	0.16978244
145	0x3e62e9f0	0.22159553
146	0xbe44f6cb	-0.19234769
147	0x3e3acd48	0.18242371
148	0x3d7a34dd	0.06108557
149	0x3ddf851b	0.1091406
150	0xbd8ceb04	-0.06880763
151	0x3e2411b5	0.1602238
152	0x3d4c349d	0.049854863
153	0xbe28afaa	-0.1647326
154	0x3e47f18a	0.19525734
155	0x3a802797	0.0009777424
156	0xbd5bdca0	-0.0536772
157	0x3d6a8be7	0.057262328
158	0x3cdd7beb	0.027036628
159	0xbe51e1ab	-0.20496242
160	0x3e625430	0.22102427
161	0xbcc566cd	-0.02409687
162	0x3d85bcf8	0.065301836
163	0xbd294fb8	-0.04133579
164	0xbe54597b	-0.20737259
165	0xbe440d59	-0.19145717
166	0xbd83c434	-0.06433907
167	0xbd926121	-0.07147432
168	0x3e367eea	0.17821851
169	0x3cfbccc1	0.030737283
170	0x3e5be068	0.21472323
171	0x3e3abc2d	0.18235846
172	0x3cc98297	0.024598403
173	0xbdac0046	-0.0839849
174	0x3ba5e616	0.005062829
175	0xbda08e53	-0.07839646
176	0xbe63a53e	-0.22231004
177	0x3d7a2c2c	0.06107728
178	0x3db82d2f	0.08992993
179	0xbd8ccf31	-0.06875456
180	0x3e4f1537	0.20222937
181	0x3cc254ef	0.02372214
182	0xbc2c028d	-0.010498655
183	0xbd661da1	-0.0561806
184	0x3e5b6778	0.21426189
185	0x3df516cf	0.11967241
186	0xbe229e8c	-0.15880793
187	0xbe2c730e	-0.16840765
188	0xbe38e7be	-0.18057153
189	0x3e4eef7a	0.2020854
190	0x3e3dcd04	0.18535239
191	0x3de6ba16	0.11265962
192	0x3de0773e	0.10960244
193	0xbe1a01be	-0.15039727
194	0x3e26f29c	0.16303486
195	0xbc7f163e	-0.015569268
196	0xbbd69102	-0.006548048
197	0x3cdfbbee	0.027311292
198	0xbd858a72	-0.06520547
199	0x3e535957	0.20639549
200	0x3ce4dfb0	0.027938694
201	0x3e13b698	0.14425123
202	0xbe0dd8a9	-0.1385218
203	0xbe44ba9f	-0.19211815
204	0xbd98fc53	-0.07470002
205	0x3d8e3040	0.06942797
206	0xbe1e962f	-0.15486978
207	0xbdf6bb5f	-0.12047457
208	0x3d90022e	0.07031666
209	0x3e5fed69	0.21867909
210	0x3e44eecb	0.19231717
211	0x3e5275d2	0.20552757
212	0xbd3abefe	-0.0455923
213	0xbe201792	-0.15633991
214	0x3da610cb	0.08108672
215	0xbe035ca5	-0.1282831
216	0x3e5981e1	0.21240951
217	0x3d651df7	0.05593678
218	0xbe49fdde	-0.19725749
219	0x3ad1cac6	0.0016005866
220	0xbe141dfd	-0.14464565
221	0x3da85fed	0.082214214
222	0xbde764f6	-0.11298554
223	0xbbf4a87d	-0.0074663744
224	0x3e273c6e	0.16331646
225	0xbe289326	-0.16462383
226	0x3e1f2ad1	0.15543677
227	0x3e0e6c04	0.13908392
228	0x3c5e1b68	0.013556339
229	0x3e3d8af2	0.18510035
230	0xbe1935fd	-0.14962001
231	0xbe32ec81	-0.17473032
232	0xbda57bad	-0.0808023
233	0x3e4089be	0.18802544
234	0xbe048506	-0.1294137
235	0x3da651b6	0.08121054
236	0xbe20a542	-0.15688041
237	0x3c7ad9dc	0.015310731
238	0x3e427fb1	0.18994023
239	0x3e23037e	0.15919301
240	0x3dcef680	0.1010561
241	0xbdc151a2	-0.09439398
242	0x3ddee49c	0.108834475
243	0x3e4292f9	0.19001378
244	0xbe5067c7	-0.20352088
245	0x3d69bdfd	0.057065953
246	0xbde8da46	-0.11369757
247	0x3dde67c5	0.10859636
248	0xbc5fea0d	-0.013666642
249	0xbd481f2b	-0.04885785
250	0xbe209fb0	-0.15685916
251	0xbe1dbc44	-0.15403849
252	0x3cea7b30	0.028623194
253	0x3d8b43c9	0.06800038
254	0xbbc5c913	-0.006035933
255	0x3e3851dd	0.17999978

feature_extractor.gru.bias_ih_l0 f4 [60]
0	0x3c840d6f	0.016119687
1	0x3e3d54d4	0.1848939
2	0x3d8c84be	0.06861256
3	0xbe649462	-0.22322229
4	0xbdd3da23	-0.10344341
5	0xbe62dcb3	-0.22154503
6	0xbe021b48	-0.1270572
7	0xbd8b2914	-0.067949444
8	0xbdc8ccf0	-0.09804714
9	0x3e55746d	0.20845194
10	0x3e107cd4	0.14110118
11	0xbe3efb8d	-0.18650647
12	0xbd9c0184	-0.076174766
13	0x3e052028	0.13000548
14	0x3daabfbb	0.08337351
15	0x3e0c69e9	0.13712277
16	0xbd8ff63e	-0.07029389
17	0x3e2196ac	0.15780133
18	0x3d846440	0.06464434
19	0x3e30548f	0.17219757
20	0x3e279716	0.16366228
21	0x3d4db358	0.050219864
22	0xbd2247e8	-0.039619356
23	0x3dcbd33f	0.09952401
24	0xbdce6739	-0.10078282
25	0xbdf429db	-0.11922046
26	0x3e239621	0.15975238
27	0x3d8de807	0.06929021
28	0xbe0b9ae6	-0.13633308
29	0x3e556d84	0.20842558
30	0x3c8264a3	0.015917128
31	0x3da76038	0.08172649
32	0xbde36062	-0.11102368
33	0xbe031a87	-0.12803088
34	0xbd8282b3	-0.06372585
35	0xbc4478ff	-0.011991738
36	0xbe4a7566	-0.19771346
37	0x3da04ab3	0.07826748
38	0xbe39c44d	-0.18141289
39	0x3e46baff	0.19407271
40	0xbe0a4743	-0.13503747
41	0xbe5a13ca	-0.21296611
42	0xbce21967	-0.027600003
43	0x3e1f348d	0.1554739
44	0x3e4f80bc	0.20263952
45	0x3d38ab2c	0.045085117
46	0x3d1742be	0.036928885
47	0x3e5304d8	0.20607316
48	0x3c672c55	0.014109691
49	0xbdd35bbb	-0.103202306
50	0xbb982f03	-0.004644276
51	0xbe445f78	-0.19177043
52	0x3d2b3267	0.041796114
53	0x3da27350	0.0793215
54	0xbe46bd21	-0.19408084
55	0x3e44d744	0.19222742
56	0x3e5873b8	0.21137893
57	0x3d1e11f4	0.03859134
58	0xbe492d25	-0.19646128
59	0xbe579809	-0.2105409

feature_extractor.gru.bias_hh_l0 f4 [60]
0	0x3d18e2cb	0.03732566
1	0xbe242031	-0.16027905
2	0x3c042641	0.008065761
3	0x3d3bd7d1	0.045860115
4	0xbe593148	-0.21210206
5	0xbe2c57ed	-0.16830416
6	0x3d8e4757	0.06947201
7	0xbe21ebb1	-0.15812565
8	0x3d1b5f02	0.037932403
9	0x3e1d1cde	0.15343043
10	0xbe396105	-0.18103416
11	0xbdccfcaf	-0.10009133
12	0x3c986e2e	0.018607225
13	0x3d1d080f	0.038337763
14	0xbde853ed	-0.113441326
15	0xbe16c38a	-0.1472303
16	0xbcd61f6b	-0.026138028
17	0xbd08860d	-0.033330966
18	0xbe63cb0d	-0.22245426
19	0xbe12cc51	-0.14335753
20	0x3e644844	0.22293192
21	0xbd6f6203	-0.05844308
22	0xbca9f5db	-0.020747116
23	0xbe37c4df	-0.17946194
24	0xbc9804dd	-0.018557006
25	0x3d910499	0.07080955
26	0xbe4f896a	-0.20267263
27	0x3ce3e515	0.027819196
28	0x3dcc720d	0.09982691
29	0xbe27128f	-0.16315673
30	0x3e168649	0.14699663
31	0xbe13c74d	-0.14431496
32	0xbd2e5b86	-0.042567752
33	0xbe0a4680	-0.13503456
34	0x3d3d6c84	0.046246067
35	0xbcede084	-0.029037721
36	0x3aa849e0	0.0012839399
37	0xbe4197d7	-0.18905579
38	0x3e3eb8da	0.18625203
39	0xbd99bfa2	-0.07507254
40	0xbd4a1914	-0.049340323
41	0xbc10563e	-0.008809624
42	0xbce140ba	-0.027496684
43	0x3d1fd85a	0.03902469
44	0x3e44e3fc	0.19227594
45	0x3e25528a	0.16144767
46	0x3e4a628e	0.19764158
47	0x3ce2235a	0.027604748
48	0xbdfffaa0	-0.12498975
49	0xbc4d2f23	-0.012523445
50	0x3e5befc9	0.2147819
51	0x3e0cbce4	0.13743931
52	0xbdb4bdb6	-0.08825247
53	0xbe1cc9c8	-0.15311348
54	0x3e167229	0.14691986
55	0x3e36f0a2	0.17865232
56	0x3e3308ba	0.17483798
57	0xbd5758aa	-0.05257479
58	0x3e25242a	0.16127077
59	0x3e3a182d	0.18173285

factor_encoder.linear.weight f4 [20, 20]
0	0x3e35d74f	0.17757915
1	0x3e5c5094	0.21515113
2	0xbe525737	-0.20541082
3	0x3e56cdc8	0.20976937
4	0x3e2c08de	0.16800258
5	0x3d8669e6	0.06563167
6	0x3de56299	0.11200447
7	0x3cc32429	0.023820953
8	0xbe107182	-0.141058
9	0x3dca7ef5	0.098874964
10	0xbb314087	-0.0027046518
11	0x3e5c954a	0.21541324
12	0xbde55662	-0.11198117
13	0x3db3d358	0.08780545
14	0xbe20e7fc	-0.15713495
15	0xbe4e15b9	-0.20125474
16	0x3e15a131	0.14612271
17	0x3e5195f1	0.20467354
18	0x3e5da652	0.21645477
19	0xbc9d1b43	-0.019178038
20	0xbb3c60d5	-0.002874424
21	0xbbfae89e	-0.0076571247
22	0xbe4dc3cb	-0.2009422
23	0x3ddab354	0.106787354
24	0xbe0b4da3	-0.13603835
25	0xbcbeb5ce	-0.02328005
26	0xbdb9921e	-0.09061073
27	0xbe5d7076	-0.21624932
28	0x3e094d87	0.1340848
29	0x3d9f5379	0.07779593
30	0x3d50371c	0.050833806
31	0x3cf2ab00	0.029622555
32	0x3e3d7344	0.18501002
33	0x3de3688f	0.11103927
34	0x3cdbbdc5	0.026823888
35	0x3e0cdc42	0.13755897
36	0x3e52798a	0.20554176
37	0xbbaab5b6	-0.00520965
38	0x3e485cef	0.19566701
39	0xbe1b552a	-0.15169206
40	0xbe539cd4	-0.20665294
41	0x3e02babf	0.1276655
42	0xbe2d114e	-0.16901132
43	0xbdf56308	-0.11981779
44	0x3e603b6a	0.21897665
45	0xbde83aa2	-0.11339308
46	0x3da9fca6	0.08300142
47	0x3e2e94bd	0.17048927
48	0xbd4745a7	-0.04865041
49	0xbe0a4b4f	-0.1350529
50	0xbe0bb3be	-0.13642785
51	0x3d32256b	0.043492716
52	0x3e310501	0.17287065
53	0x3e0f0540	0.13966846
54	0xbe0eac63	-0.13932948
55	0xbe30e48e	-0.17274687
56	0xbdd242c1	-0.102666385
57	0xbdaeb25a	-0.085301116
58	0x3d8f2e2f	0.06991231
59	0xbdd4264a	-0.103588656
60	0x3d935a82	0.07194997
61	0xbe123280	-0.14277077
62	0x3e508b5e	0.20365664
63	0xbe3c6509	-0.18397917
64	0xbc53fab0	-0.0129381865
65	0x3dba122c	0.09085497
66	0x3e3a9731	0.18221737
67	0xbe62a318	-0.22132528
68	0xbe48c928	-0.19607985
69	0x3e30a357	0.17249809
70	0xbc5666a3	-0.013085994
71	0x3db74991	0.089495786
72	0x3e1e1371	0.15437104
73	0x3e35859d	0.1772675
74	0xbe2d1d6a	-0.16905752
75	0xbd7cfeed	-0.061766554
76	0xbe2e0fdf	-0.16998242
77	0xbe0fa9e5	-0.14029653
78	0x3dff69e9	0.12471373
79	0x3e19e544	0.15028864
80	0x3d550d55	0.052014668
81	0xbdb43f31	-0.08801115
82	0xbdf154ec	-0.11783776
83	0xbd3f5520	-0.04671204
84	0x3d52e11c	0.051484212
85	0x3e03cc2f	0.12870859
86	0x3da06780	0.07832241
87	0x3de14516	0.10999505
88	0x3dda10f6	0.10647766
89	0x3d949229	0.0725444
90	0x3addc4df	0.0016919634
91	0x3d622996	0.05521544
92	0xbdbf95ca	-0.09354742
93	0x3d4ad17f	0.049516197
94	0xbe21831b	-0.15772669
95	0xbe323da3	-0.17406325
96	0xbda8e94e	-0.08247624
97	0xbe209388	-0.15681279
98	0xbce2e47e	-0.027696844
99	0x3e61270a	0.21987548
100	0x3e0174f2	0.12642267
101	0x3cec2757	0.028827352
102	0xbd8ca801	-0.06867982
103	0xbdc3d93a	-0.09562917
104	0x3c6bd49b	0.014393951
105	0xbd4e7170	-0.05040115
106	0xbd139b57	-0.036036815
107	0xbe382db9	-0.17986192
108	0x3e0b356e	0.135946
109	0x3c9a9221	0.018868508
110	0xbdab9120	-0.0837729
111	0x3cecd11d	0.028908307
112	0xbd9041e8	-0.070438206
113	0xbe35242e	-0.17689583
114	0xbd17b933	-0.037041854
115	0xbe64ba33	-0.22336654
116	0xbd9420e7	-0.07232838
117	0x3d967579	0.07346625
118	0xbe33c9a8	-0.17557395
119	0x3dac286d	0.08406148
120	0x3e63f56d	0.22261591
121	0x3d6865f1	0.056737844
122	0xbe1c8a1c	-0.1528706
123	0xbd9e39d0	-0.077258706
124	0xbd6ddb4a	-0.05807046
125	0xbca1a9fc	-0.019734375
126	0xbe26a144	-0.16272455
127	0xbd702845	-0.058632154
128	0x3d88c31c	0.06677839
129	0xbe52716e	-0.20551082
130	0xbe282fde	-0.1642451
131	0x3dd8c153	0.10583749
132	0xbd47de12	-0.048795767
133	0xbdf12fd8	-0.117767036
134	0x3aca7c87	0.0015448489
135	0x3df68864	0.12037733
136	0x3de7c263	0.11316373
137	0xbd14050d	-0.03613763
138	0xbce7b520	-0.02828461
139	0x3ddaa56c	0.10676083
140	0x3e597270	0.2123506
141	0xbde26546	-0.110544726
142	0x3d98255b	0.07429
143	0xbd303d08	-0.043026954
144	0x3e2229ba	0.1583623
145	0x3defcc82	0.11708929
146	0xbe3d31e2	-0.1847606
147	0xbd8d57f8	-0.06901544
148	0x3d86f229	0.06589157
149	0xbe270013	-0.16308622
150	0xbe4bed0d	-0.19914646
151	0x3ce0a4fc	0.02742242
152	0xbe147133	-0.14496307
153	0x3c20146b	0.009770493
154	0xbe2b4876	-0.1672686
155	0xbe615258	-0.22004068
156	0x3e6247f2	0.22097757
157	0x3e28eacd	0.1649582
158	0xbe5d913b	-0.21637432
159	0x3e5934b3	0.2121151
160	0xbd89eb26	-0.06734304
161	0x3ddd742a	0.10813172
162	0x3e26fb0d	0.16306706
163	0x3cd7f8bd	0.026363725
164	0xbe0341e9	-0.12818111
165	0x3e276877	0.16348444
166	0x3d02354a	0.0317891
167	0xbd294ff1	-0.041336004
168	0x3b521a61	0.003205918
169	0xbdf5d4c3	-0.12003472
170	0xbe19c57e	-0.15016744
171	0xbe45ecc3	-0.19328599
172	0xbe3c256c	-0.1837365
173	0xbdacee0d	-0.08443842
174	0x3e149caf	0.14512895
175	0x3d595bbe	0.053066008
176	0xbd87f9b2	-0.066394225
177	0xbe5ce537	-0.21571814
178	0xbe1f2c96	-0.15544352
179	0xbe640809	-0.2226869
180	0xbe3ac78a	-0.1824018
181	0x3de9c5e3	0.11414697
182	0x3e1231a6	0.14276752
183	0x3ca000a1	0.01953155
184	0x3d8988e3	0.06715562
185	0x3df630d5	0.12021033
186	0x3e499f48	0.19689667
187	0x3dc63933	0.09678879
188	0x3d62495d	0.055245746
189	0xbd86aec9	-0.065763064
190	0xbab9bca5	-0.00141706
191	0xbdcac146	-0.09900145
192	0xbba7e258	-0.005123418
193	0xbb761b01	-0.0037552717
194	0xbd0e92dd	-0.03480803
195	0xbe616426	-0.2201086
196	0x3db86ec5	0.090055026
197	0xbd429d7f	-0.04751348
198	0xbe1ebbd1	-0.15501334
199	0xbdd7a20c	-0.10528955
200	0xbe4eaffa	-0.20184317
201	0xbcd8e517	-0.026476426
202	0x3e281204	0.16413122
203	0x3e2c8b9c	0.16850132
204	0x3cc52f11	0.024070295
205	0x3d001a25	0.031274933
206	0xbe3cd057	-0.1843885
207	0xbdea6eeb	-0.11446937
208	0xbe230304	-0.15919119
209	0xbe4cfc1b	-0.20018046
210	0x3d389bbe	0.045070402
211	0xbd32f39c	-0.043689355
212	0x3dc3f401	0.095680244
213	0x3e5dc537	0.21657263
214	0xbe11f74d	-0.14254494
215	0x3d24d204	0.04023935
216	0xbd75a69e	-0.05997335
217	0x3d821705	0.06352047
218	0x3e2464fc	0.16054147
219	0xbdac2fce	-0.084075555
220	0x3dcfddeb	0.10149749
221	0x3ddf88ab	0.10914739
222	0xbdd474a3	-0.10373809
223	0x3cefcd02	0.02927256
224	0x3e2363c5	0.15956028
225	0xbe356ced	-0.17717333
226	0xbdc45a52	-0.0958754
227	0x3de8c26b	0.11365207
228	0xbd773830	-0.06035632
229	0xbda73310	-0.08164036
230	0xbbe0f497	-0.006865095
231	0xbe526930	-0.20547938
232	0xbde5578e	-0.1119834
233	0x3dce4360	0.100714445
234	0xbe5ce579	-0.21571912
235	0xbc91be3f	-0.017790912
236	0xbdbf262e	-0.09333454
237	0x3d8cc19f	0.06872868
238	0x3d1e41b2	0.03863687
239	0xbcb56c15	-0.022146264
240	0x3e5722c8	0.21009362
241	0xbe0c82ed	-0.13721819
242	0x3e2a2ad8	0.16617906
243	0xbe13f80a	-0.14450088
244	0x3daca8ad	0.0843061
245	0xbe2fe0c4	-0.17175585
246	0x3e468d38	0.19389808
247	0x3e5a1024	0.2129522
248	0x3d401143	0.046891462
249	0x3e107811	0.14108302
250	0xbe04d254	-0.12970859
251	0xbce18307	-0.027528299
252	0xbe5526c2	-0.20815566
253	0x3e528f01	0.20562364
254	0xbdc00928	-0.093767464
255	0xbd67f19c	-0.0566269

factor_encoder.linear.bias f4 [20]
0	0xbe6413fd	-0.2227325
1	0x3e270a01	0.1631241
2	0xbd5571c9	-0.052110467
3	0xbb52f917	-0.0032191926
4	0xbe237715	-0.15963395
5	0x3e057025	0.13031061
6	0x3d8b104c	0.06790218
7	0xbdd26ceb	-0.10274681
8	0xbd9f92c1	-0.07791663
9	0xbe0b77ab	-0.13619868
10	0xbe2cc6a0	-0.16872644
11	0xbe08e02c	-0.13366765
12	0x3e43e19f	0.19129036
13	0xbe2b6419	-0.16737403
14	0xbdd5a9b0	-0.10432756
15	0x3cb066e7	0.021533443
16	0x3c041661	0.008061976
17	0x3e4f3ad5	0.20237286
18	0xbe2a72a8	-0.166453
19	0x3e5863e3	0.21131854

factor_encoder.linear2.weight f4 [10, 20]
0	0xbe46250e	-0.19350073
1	0xbe1a23d8	-0.15052736
2	0x3e62b645	0.22139843
3	0x3de97a35	0.11400262
4	0xbdb8cb10	-0.09023106
5	0xbe0bcb9e	-0.13651893
6	0xbdd2cc6d	-0.102928974
7	0xbe0387ef	-0.12844823
8	0xbdd0d9cf	-0.10197794
9	0x3e5f606a	0.21814123
10	0xbe1dd195	-0.1541198
11	0xbe3f75b0	-0.18697238
12	0x3e270521	0.1631055
13	0xbdeeb116	-0.1165487
14	0x3e4269d4	0.18985683
15	0xbe302688	-0.17202199
16	0x3e02c726	0.12771282
17	0xbe20b4fd	-0.15694042
18	0xbe61c229	-0.22046722
19	0xbdc84c6f	-0.097802036
20	0x3d47008f	0.048584517
21	0x3db8d7ec	0.09025559
22	0xbdb6d4e6	-0.08927326
23	0x3db1752c	0.08664927
24	0xbe0e1884	-0.1387654
25	0xbdde5885	-0.108567275
26	0x3dd88832	0.10572852
27	0x3e22c6e1	0.15896179
28	0x3e5828d2	0.21109322
29	0xbe55f87f	-0.20895575
30	0xbe1a892e	-0.15091392
31	0x3e1f6249	0.15564837
32	0xbe0ca3ee	-0.13734409
33	0xbe1fa7bd	-0.15591331
34	0xbe103811	-0.14083888
35	0x3dab8783	0.08375456
36	0xbe30c906	-0.17264184
37	0xbe1364ca	-0.14393917
38	0xbb95828d	-0.004562682
39	0x3d4900f4	0.049073175
40	0x3d4d996f	0.050195154
41	0xbae5241d	-0.0017482076
42	0x3e12a842	0.14321998
43	0xbe14b4d7	-0.1452211
44	0xbbfd22d1	-0.0077250977
45	0xbd92bffb	-0.071655236
46	0xbcc5f6f9	-0.024165617
47	0xbe3640bf	-0.17798136
48	0x3e031cf6	0.12804016
49	0x3ccd0e28	0.025031164
50	0x3dd9cc7e	0.10634707
51	0xbd12c3fb	-0.035831433
52	0xbdfe0867	-0.12403946
53	0x3d6a1830	0.057151973
54	0x3e108956	0.1411489
55	0x3e505a70	0.20346999
56	0x3db0ef51	0.08639396
57	0xbdba3c0b	-0.090934835
58	0xbe4f6fa8	-0.20257437
59	0x3e18a7e6	0.14907798
60	0x3dd4c017	0.10388201
61	0x3e6423d3	0.22279291
62	0xbe50c5b8	-0.20387924
63	0xbdbe2151	-0.09283698
64	0xbe432ae1	-0.19059326
65	0x3d0c20d2	0.034210987
66	0xbd2bba62	-0.041925795
67	0x3e2f54c6	0.17122182
68	0xbe03aa6f	-0.12857984
69	0x3d20f9f3	0.03930087
70	0xbe5be1da	-0.21472874
71	0xbd85ffa1	-0.06542898
72	0xbe2fa1c9	-0.1715156
73	0x3d925113	0.0714437
74	0x3e62e533	0.22157745
75	0xbcb5e914	-0.022205867
76	0x3d0c58aa	0.034264244
77	0xbd0b03f2	-0.03393931
78	0x3b7b9577	0.0038388649
79	0xbd2ec6da	-0.04267011
80	0x3d7025ba	0.05862973
81	0x3d9276a0	0.07151532
82	0x3e567ff4	0.20947248
83	0x3e16c725	0.14724405
84	0x3ddc2f38	0.10751194
85	0xbe3ab715	-0.18233903
86	0xbe15f3e8	-0.14643824
87	0xbe05fbbb	-0.13084309
88	0xbd2c6d19	-0.04209623
89	0x3c28ee00	0.01031065
90	0x3e3d0f4b	0.18462865
91	0xbe323206	-0.17401895
92	0x3d728943	0.059212934
93	0xbcae8d3f	-0.021307586
94	0x3cf5db63	0.030011838
95	0x3d56ca00	0.052438736
96	0x3dbddf01	0.0927105
97	0xbc89fd67	-0.016844464
98	0xbceb50e7	-0.0287251
99	0x3cd933be	0.02651393
100	0xbe2322c3	-0.1593123
101	0x3e07ea72	0.13273028
102	0x3e194139	0.14966287
103	0xbe1db30e	-0.15400335
104	0xbc16eac8	-0.00921125
105	0xbe364886	-0.17801103
106	0xbe14f26e	-0.14545605
107	0x3e2465d7	0.16054474
108	0x3e3aacce	0.18229982
109	0x3e30436d	0.17213221
110	0x3cad83fe	0.021181103
111	0x3c64743f	0.013943731
112	0x3db4c537	0.08826678
113	0xbd1f3a58	-0.038874
114	0x3d9bed6b	0.07613643
115	0x3e3bb729	0.18331589
116	0x3e0a762d	0.13521643
117	0xbe02d2f0	-0.12775779
118	0xbe553f74	-0.20824987
119	0xbe03bbca	-0.12864605
120	0xbe2dceec	-0.16973466
121	0xbdfd334b	-0.12363299
122	0xbe29da53	-0.1658719
123	0xbe1cfe3a	-0.15331355
124	0x3b85f2ff	0.0040878053
125	0x3e4250c3	0.1897612
126	0xbd148917	-0.03626355
127	0xbe3b97c0	-0.18319607
128	0x3e5d7cc9	0.21629633
129	0xbddd32e9	-0.10800726
130	0xbe5b2e2d	-0.21404333
131	0x3e18a0f6	0.14905152
132	0xbd7970d9	-0.060898636
133	0xbe3e3b4f	-0.18577312
134	0xbd7474f2	-0.05968184
135	0xbe0cd783	-0.13754086
136	0x3cafb257	0.021447344
137	0x3d37aa87	0.044840362
138	0x3de2c5d5	0.1107289
139	0x3e53954f	0.20662425
140	0xbe46dd19	-0.1942028
141	0x3dd471ed	0.10373292
142	0x3b3f31bd	0.0029173933
143	0xbc57a96a	-0.01316295
144	0xbd8515dd	-0.06498311
145	0xbe635764	-0.22201306
146	0x3e3f0907	0.18655787
147	0x3e2c9bd4	0.16856319
148	0xbe1bcba0	-0.15214396
149	0xbd83daa6	-0.06438188
150	0x3db4da67	0.088307194
151	0x3c99f076	0.018791419
152	0x3cbed3e1	0.023294391
153	0x3dd22b7c	0.102622
154	0xbdb47250	-0.08810866
155	0xbe1df42a	-0.15425172
156	0xbe4b943b	-0.19880764
157	0x3dcc6b8d	0.09981451
158	0x3dd98962	0.10621907
159	0xbd2a3ad7	-0.04156002
160	0xbdee0f15	-0.116239704
161	0xbd873cd8	-0.06603402
162	0xbe25f1bc	-0.16205496
163	0xbe02f95a	-0.12790433
164	0x3e615b8a	0.22007576
165	0xbe453e03	-0.19261937
166	0x3e45998d	0.19296856
167	0x3dcde65b	0.100537024
168	0x3d907c36	0.07054941
169	0x3e2d74f6	0.16939148
170	0x3c654991	0.01399459
171	0x3bbb5eca	0.005718087
172	0xbd70c1f9	-0.058778737
173	0x3e62eb0e	0.22159979
174	0x3b66d740	0.0035223514
175	0xbe1becfc	-0.15227121
176	0xbe4659f0	-0.19370246
177	0x3bf04589	0.007332508
178	0xbc71265f	-0.014718621
179	0x3da3ef72	0.08004655
180	0x3e01ffde	0.12695262
181	0x3c29d0a0	0.0103646815
182	0xbd7715e4	-0.06032361
183	0x3e3739c8	0.17893136
184	0x3df44bdc	0.119285315
185	0x3e58ab10	0.21159005
186	0x3e094844	0.13406473
187	0x3e113ec2	0.14184096
188	0x3e067369	0.13129963
189	0xbe3369ab	-0.17520778
190	0xbe024460	-0.12721395
191	0xbdb0dee1	-0.08636261
192	0x3d74f231	0.059801284
193	0xbe067528	-0.13130629
194	0x3c681188	0.014164336
195	0x3d602946	0.05472686
196	0x3e16e2c4	0.14734942
197	0x3e1b5ee4	0.15172917
198	0x3d89c6bb	0.06727358
199	0xbd87d538	-0.06632465

factor_encoder.linear2.bias f4 [10]
0	0x3db577ef	0.08860766
1	0xbde625d5	-0.11237685
2	0x3e26f4f0	0.16304374
3	0xbe02f443	-0.12788491
4	0x3e2ee0a3	0.1707788
5	0x3e550a18	0.20804632
6	0x3e2fc3c8	0.17164528
7	0x3e388a4c	0.18021506
8	0x3ba2fa91	0.0049737175
9	0x3e2e694b	0.17032354

factor_decoder.alpha_layer.linear1.weight f4 [20, 20]
0	0xbe1881f7	-0.14893328
1	0xbe5838d9	-0.21115436
2	0xbe17bc00	-0.1481781
3	0xbe574ed6	-0.21026167
4	0x3d8fdde9	0.07024748
5	0xbd94ac00	-0.07259369
6	0xbca022c9	-0.019547837
7	0xbdc6c0f2	-0.0970477
8	0xbd8c28c5	-0.06843714
9	0xbe5ef00f	-0.21771263
10	0xbe476eee	-0.1947591
11	0x3e60e092	0.21960667
12	0xbe646530	-0.22304225
13	0xbde57145	-0.11203245
14	0xbdc7c49f	-0.09754299
15	0xbe532125	-0.20618112
16	0xbe0802e6	-0.13282356
17	0xbcb685e2	-0.022280637
18	0x3d0bce5d	0.03413235
19	0x3e341f4b	0.17590062
20	0x3e18de05	0.14928444
21	0x3db5043f	0.088387005
22	0xbdb8ad89	-0.09017474
23	0xbe55e29c	-0.20887226
24	0x3d238245	0.039919157
25	0xbe4a006d	-0.19726725
26	0xbe5cb790	-0.21554399
27	0xbd0006aa	-0.031256355
28	0xbdf12356	-0.11774318
29	0x3e5883c5	0.21144016
30	0xbd5ff63c	-0.054678187
31	0x3e31c428	0.17359984
32	0x3e2a9c33	0.16661148
33	0x3d72d30d	0.059283305
34	0xbd273e29	-0.040830765
35	0x3e3a446a	0.1819016
36	0xbde605b8	-0.112315595
37	0x3c9cc611	0.019137414
38	0x3b93c43b	0.0045094765
39	0xbe441709	-0.19149412
40	0x3e273766	0.16329727
41	0x3d9fa314	0.077947766
42	0x3c6e03d8	0.014527284
43	0xbdb4614e	-0.08807622
44	0xbdcc277e	-0.0996847
45	0x3e5d6bd2	0.21623161
46	0xbdbdf682	-0.09275533
47	0xbc2a548e	-0.010396136
48	0x3e5409c9	0.20706858
49	0x3e63abf3	0.22233562
50	0x3e291075	0.16510184
51	0x3dd3e726	0.103468224
52	0x3d8fbe3e	0.07018708
53	0xbd2069a4	-0.039163247
54	0x3db6b632	0.0892147
55	0xbdd64e84	-0.104641944
56	0xbddbb777	-0.107283525
57	0xbda4240d	-0.08014689
58	0xbe3a0632	-0.18166426
59	0xbd326a6d	-0.043558527
60	0x3df52844	0.11970571
61	0x3d004a1c	0.031320676
62	0x3d485609	0.048910175
63	0x3e3207f1	0.17385842
64	0xbdf0ff85	-0.117674865
65	0xbd91e2cf	-0.071233384
66	0x3bcdcc72	0.0062804753
67	0x3df23e89	0.11828334
68	0x3da02abc	0.07820651
69	0xbe00d463	-0.12581019
70	0x3e3f04cf	0.18654178
71	0xbd3f28cb	-0.046669763
72	0x3e3b2e9f	0.18279503
73	0xbdc486bf	-0.09596013
74	0x3e03f298	0.12885511
75	0xbd49a12b	-0.049225967
76	0x3cee5b80	0.029096365
77	0x3e3e291a	0.18570367
78	0x3d288cca	0.041149892
79	0x3cd2241b	0.025651982
80	0xbd8aa1fd	-0.06769178
81	0x3dbc8adb	0.09206172
82	0xbd3d8eba	-0.046278693
83	0xbbecc7c7	-0.0072259638
84	0x3cc1931f	0.023629723
85	0x3e1bdf48	0.15221894
86	0x3d0a2abd	0.033732165
87	0xbe0d4704	-0.13796622
88	0xbd03578f	-0.032065924
89	0x3d92d162	0.07168843
90	0xbe4c8627	-0.1997305
91	0xbddd1d0a	-0.107965544
92	0xbd651655	-0.0559295
93	0xbd8fab9a	-0.07015152
94	0xbd7f3c90	-0.062313616
95	0xbcce54ad	-0.025186861
96	0x3d7ccb3f	0.061717268
97	0xbdf8342d	-0.12119327
98	0xbe098f7a	-0.13433638
99	0x3e3b5ce9	0.18297161
100	0x3d5949a8	0.05304876
101	0xbdd60c70	-0.10451591
102	0x3be71ece	0.0070532328
103	0xbe3a2e49	-0.18181719
104	0x3d072f7c	0.03300427
105	0xbe482fe9	-0.19549526
106	0xbe41f128	-0.1893965
107	0x3e4b9b4c	0.1988346
108	0xbe23286e	-0.15933391
109	0xbe2bcbe8	-0.16777003
110	0x3d7e3ae2	0.062067874
111	0xbd1cbb0e	-0.038264327
112	0x3da33c76	0.079705164
113	0x3e395e08	0.18102276
114	0x3cb1c622	0.021700922
115	0xbe4d09d3	-0.20023279
116	0x3befc5a1	0.0073172604
117	0x3d3b939d	0.045795072
118	0x3e2d78bb	0.16940586
119	0xbda57ba3	-0.080802225
120	0xbe2a67ac	-0.1664111
121	0xbb8f287c	-0.00436884
122	0xbe0f1a6b	-0.13974921
123	0xbdb96638	-0.090527
124	0x3e15fb05	0.14646538
125	0x3ce69b70	0.02815029
126	0x3e41a6cb	0.18911283
127	0xbdf397a1	-0.11894155
128	0x3da42312	0.08014502
129	0xbd30346c	-0.043018743
130	0xbe3a04e0	-0.18165922
131	0xbe103454	-0.14082462
132	0xbc2fd3b6	-0.010731628
133	0x3dfafb5f	0.122549765
134	0x3e17d5b9	0.14827622
135	0xbe3f9469	-0.18708958
136	0x3d9ae220	0.07562661
137	0x3dbc4f39	0.09194798
138	0xbdcef756	-0.10105769
139	0xbda6bc98	-0.0814144
140	0xbded3d69	-0.11583979
141	0xbe542ae7	-0.20719491
142	0x3e498a67	0.19681703
143	0xbe344bde	-0.17607066
144	0x3db7ad9e	0.08968662
145	0xbd94bc08	-0.072624266
146	0xbe622952	-0.22086075
147	0x3ded60a8	0.11590701
148	0x3bc151c6	0.0058996407
149	0xbc5ffdba	-0.013671333
150	0xbde3078f	-0.11085426
151	0x3ad783d9	0.0016442492
152	0x3dc32d4a	0.095301226
153	0x3d4b55d1	0.049642388
154	0xbe564a91	-0.20926882
155	0xbe36a3d5	-0.17835934
156	0xbe163b98	-0.1467117
157	0x3e219e1d	0.15782972
158	0xbc5fc544	-0.013657872
159	0xbdab2db8	-0.083583295
160	0x3d02d4ea	0.031941332
161	0xbd158c81	-0.036510948
162	0x3d36f4cb	0.044667047
163	0xbe3c9cb7	-0.18419157
164	0xbd181224	-0.037126675
165	0x3e649183	0.22321133
166	0x3c379d9d	0.0112070115
167	0x3e5dc513	0.21657209
168	0x3e1f1d51	0.15538527
169	0xb989af96	-0.00026261498
170	0x3e406ccb	0.18791501
171	0xbd62e01b	-0.055389505
172	0x3e237be9	0.15965237
173	0x3c922bb4	0.017843105
174	0xbe62df7b	-0.22155564
175	0x3da1e345	0.07904676
176	0x3cdae8ac	0.026722275
177	0xbe189998	-0.14902341
178	0x3e0ada99	0.13559951
179	0xbe2c180c	-0.16806048
180	0xbe506be8	-0.20353663
181	0xbcb748ec	-0.022373639
182	0x3d1e911a	0.0387126
183	0x3e3d5e3f	0.18492983
184	0xbdeb0a89	-0.11476619
185	0xbdf9dcfd	-0.12200353
186	0x3d281818	0.041038603
187	0x3e56ad48	0.20964539
188	0x3e564abc	0.20926946
189	0xbd2c7e75	-0.042112786
190	0xbc643530	-0.0139286965
191	0xbd372cce	-0.044720463
192	0x3e5e37ce	0.21700975
193	0x3d11a60b	0.03555874
194	0x3c809553	0.015696203
195	0x3d6bd9f2	0.057580896
196	0xbe2d3d6b	-0.1691796
197	0xbcb61a1b	-0.022229245
198	0xbe37e77b	-0.17959397
199	0x3d8bcb80	0.06825924
200	0x3e203678	0.15645778
201	0x3d199a1f	0.037500497
202	0xbd8b89b7	-0.068133764
203	0x3e29a18f	0.16565536
204	0x3d0e4e70	0.034742773
205	0xbe3dd189	-0.18536963
206	0xbe43a285	-0.19104965
207	0x3dc92388	0.0982123
208	0x3e32ad37	0.17448889
209	0x3e5085a8	0.20363486
210	0x3d6987fd	0.057014454
211	0xbe174aa5	-0.14774568
212	0xbe185f92	-0.14880207
213	0x3cbd39e6	0.023098897
214	0x3e05cbaa	0.13065973
215	0xbd3ec3d6	-0.046573482
216	0x3da82d41	0.082117565
217	0x3e0cf66f	0.13765882
218	0x3dc33c45	0.0953298
219	0xbd65a8e8	-0.056069285
220	0xbd3c39f3	-0.045953702
221	0xbe10ad07	-0.14128505
222	0x3b500dcc	0.0031746505
223	0xbe470883	-0.1943684
224	0x3e20c3bb	0.15699665
225	0x3d427216	0.047472082
226	0x3dc26bc9	0.09493215
227	0x3e3b9dd8	0.18321931
228	0xbd76d46e	-0.060261182
229	0x3cac0017	0.020996137
230	0xbda02916	-0.078203365
231	0x3ddb1e24	0.10699108
232	0x3db39909	0.087694235
233	0x3e025bd0	0.12730336
234	0xbc1c3079	-0.009533041
235	0x3dbdadb2	0.092616454
236	0xbe006597	-0.12538753
237	0xbe0702d7	-0.13184677
238	0xbe3fcb7d	-0.18729968
239	0x3dfff506	0.124979064
240	0xbe55499b	-0.2082886
241	0xbdb779a4	-0.08958748
242	0xbcf0c993	-0.029392993
243	0xbcbc3040	-0.022972226
244	0x3e30883d	0.17239471
245	0x3e52faad	0.20603438
246	0xbdc68a5b	-0.09694358
247	0xbcfb92d6	-0.030709665
248	0xbe3d1749	-0.18465914
249	0xbe02cffc	-0.12774652
250	0xbd9ef25f	-0.07761072
251	0xbd3ca0de	-0.046051852
252	0x3e1cfe51	0.15331389
253	0xbd4d7ced	-0.050167967
254	0x3d7cd2b5	0.061724383
255	0xbe3732c4	-0.1789046

factor_decoder.alpha_layer.linear1.bias f4 [20]
0	0xbd296458	-0.04135546
1	0x3e47668a	0.1947271
2	0xbcefad09	-0.029257314
3	0xbd5ad19c	-0.053422555
4	0xbdce7227	-0.100803666
5	0xbd77940f	-0.060443934
6	0xbe58a6ad	-0.21157332
7	0xbe51cecb	-0.20489042
8	0x3dbc0f2c	0.09182581
9	0xbb98e70a	-0.004666214
10	0xbe5f64f6	-0.21815857
11	0x3c9e0002	0.019287113
12	0xbd9e5578	-0.077311456
13	0x3dd53f7a	0.10412498
14	0x3e2129c1	0.15738584
15	0x3e48387a	0.19552794
16	0x3d7b052f	0.06128424
17	0x3e5f8446	0.21827802
18	0x3e559991	0.20859362
19	0xbd61c36d	-0.055118013

factor_decoder.alpha_layer.mu_layer.weight f4 [1, 20]
0	0xbe445a7e	-0.19175145
1	0xbc9220f8	-0.017837986
2	0x3e2d2b94	0.16911155
3	0x3dc2d86e	0.09513937
4	0xbda08e89	-0.078396864
5	0xbd1b844c	-0.037967965
6	0x3e0ade4f	0.13561366
7	0x3ddb8cba	0.10720201
8	0x3e2ebb38	0.17063606
9	0x3db401f3	0.08789434
10	0xbd9855af	-0.07438218
11	0xbe4b66da	-0.19863454
12	0x3e0697ec	0.13143891
13	0xbe19c0ce	-0.15014955
14	0xbe17f3c2	-0.1483908
15	0xbbca7f36	-0.0061797155
16	0xbb81abfe	-0.0039572706
17	0xbe3d0a46	-0.1846095
18	0x3e12199b	0.1426758
19	0x3db77105	0.08957104

factor_decoder.alpha_layer.sigma_layer.weight f4 [1, 20]
0	0xbd3d6a2b	-0.046243828
1	0xbd418ce4	-0.047253504
2	0x3e03e9a1	0.12882091
3	0x3df27401	0.11838532
4	0xbe4aed8f	-0.19817184
5	0xbd84107f	-0.06448459
6	0xbc3f8039	-0.0116882855
7	0xbe41cab8	-0.18924987
8	0xbe3eaf35	-0.18621524
9	0x3d75eafc	0.06003855
10	0xbd85b3d4	-0.0652844
11	0xbe5ed0ab	-0.21759288
12	0x3e36a2ce	0.17835543
13	0xbe1776c6	-0.14791402
14	0xbe5ac6e3	-0.21364932
15	0x3a93a848	0.0011265362
16	0xbe2c3f0f	-0.1682093
17	0x3e47b6a5	0.19503267
18	0xbc925a53	-0.017865336
19	0xbddf29b5	-0.10896627

factor_decoder.beta_layer.linear1.weight f4 [10, 20]
0	0xbdfce20d	-0.12347803
1	0xbd16e9aa	-0.036843933
2	0x3e054d1f	0.130177
3	0x3e438d32	0.1909683
4	0xbe5367d9	-0.20645083
5	0x3e2b60f2	0.167362
6	0xbe5a440e	-0.21315023
7	0x3ddd7bf2	0.10814656
8	0xbe1cf0d5	-0.15326245
9	0xbce4f561	-0.027949037
10	0xbe145f9b	-0.14489596
11	0x3e436688	0.19082081
12	0x3dd1e84a	0.10249384
13	0x3c1a33c4	0.009411756
14	0x3e62b90d	0.22140904
15	0xbe3af74b	-0.18258397
16	0xbdff4b8e	-0.12465583
17	0x3e161126	0.14654979
18	0x3df981e5	0.121829785
19	0x3db80dfa	0.08987041
20	0xbda861e6	-0.08221798
21	0xbdc7b8f4	-0.09752074
22	0x3e5cc387	0.21558963
23	0x3ca6cdb0	0.020361751
24	0xbe57bdad	-0.2106845
25	0x3e21b9d7	0.15793549
26	0x3b3bdb1d	0.0028664537
27	0xbe648fec	-0.22320527
28	0xbdfa2e89	-0.12215907
29	0xbe39ed05	-0.18156822
30	0xbd7f1b22	-0.062281735
31	0x3d0be8b9	0.03415749
32	0xbda717ba	-0.08158822
33	0x3e03397f	0.12814902
34	0xbdf7f89d	-0.12107966
35	0x3e63426e	0.2219331
36	0xbe47b4bd	-0.1950254
37	0xbe3b0058	-0.1826185
38	0xbc09ab56	-0.008402666
39	0x3e2fa6bc	0.17153448
40	0xbd7f21e5	-0.062288184
41	0xbe1ca729	-0.15298142
42	0x3e252086	0.16125688
43	0x3e127a4f	0.1430447
44	0xbd981dc4	-0.07427552
45	0xbe3fdacb	-0.18735807
46	0x3d8f3a86	0.06993584
47	0x3d024946	0.03180816
48	0x3e141efb	0.14464943
49	0xbe366e92	-0.17815617
50	0xbd947a8b	-0.07249936
51	0x3e5c8ccb	0.21538083
52	0x3e18c40a	0.14918533
53	0xbd9654b0	-0.073403716
54	0xbd9cc0a1	-0.076539285
55	0x3e2c3149	0.16815676
56	0x3dcbfe84	0.099606544
57	0xbe264727	-0.1623808
58	0x3de8bcbe	0.11364125
59	0xbcc0d3d4	-0.023538508
60	0x3e55e36d	0.20887537
61	0xbe2ac4fb	-0.16676705
62	0xbdd77b72	-0.10521592
63	0x3e569c56	0.20958075
64	0xbd9dfc56	-0.07714145
65	0xbe630038	-0.22168052
66	0x3def4a7b	0.11684128
67	0xbc87bd64	-0.0165698
68	0x3dc41cde	0.095758185
69	0xbd306321	-0.043063287
70	0x3e31722d	0.17328711
71	0xbc7cfd06	-0.015441185
72	0xbc87ed5b	-0.016592672
73	0x3e18fd38	0.14940345
74	0xbb7919fa	-0.0038009868
75	0xbe5457e9	-0.2073666
76	0x3d487533	0.048939895
77	0x3dbf7516	0.09348504
78	0xbddd74dd	-0.108133055
79	0xbdd8d1f5	-0.10586921
80	0x3e49b596	0.19698176
81	0xbddaab18	-0.10677165
82	0x3d4e5519	0.050374124
83	0x3dbad585	0.09122757
84	0x3dec87be	0.11549328
85	0xbbbc54fb	-0.005747435
86	0x3da30950	0.079607606
87	0x3e5f3ac1	0.21799757
88	0xbd4cf8b7	-0.05004188
89	0xbd575a50	-0.052576363
90	0x3e45e642	0.19326118
91	0x3dc40a12	0.09572233
92	0x3e59f64d	0.21285363
93	0xbe446e71	-0.19182755
94	0xbd9dadbc	-0.07699153
95	0xbe3ec9f5	-0.18631728
96	0xbd9a1f68	-0.075255215
97	0x3e42f69a	0.19039384
98	0xbd68bdae	-0.056821518
99	0xbdb86373	-0.090033434
100	0xbdabf632	-0.083965674
101	0x3e004b79	0.1252879
102	0xbe2cccc6	-0.1687499
103	0xbe19b971	-0.15012147
104	0xbe58bcf0	-0.21165824
105	0x3e5ea3fd	0.21742244
106	0xbde832fd	-0.1133785
107	0xbe084255	-0.13306554
108	0x3e3649b1	0.17801549
109	0x3e41901b	0.18902628
110	0x3e1f3fe5	0.15551718
111	0xbe6362ab	-0.22205608
112	0x3e1004a1	0.14064266
113	0x3e2a09ad	0.16605254
114	0xbe0409ea	-0.12894407
115	0x3c3aafd1	0.011394457
116	0x3e331154	0.17487079
117	0x3cd5d951	0.026104601
118	0x3d6a78b3	0.057244014
119	0xbda8aee3	-0.08236482
120	0xbe5586ce	-0.20852205
121	0x3d8b4c6c	0.06801686
122	0x3e54714a	0.20746341
123	0x3e1b4d1b	0.15166132
124	0x3ba1b3e1	0.0049347733
125	0x3dff6f0e	0.12472354
126	0x3d834885	0.064103164
127	0x3bb78a0c	0.0056011733
128	0x3e1f2ba8	0.15543997
129	0x3e5f09d2	0.2178109
130	0xbda35463	-0.0797508
131	0xbd04a104	-0.03238012
132	0x3cb020ea	0.02150007
133	0x3da8b6d4	0.08237997
134	0x3db1a58b	0.08674153
135	0xbe1822e0	-0.14857054
136	0xbd54e9eb	-0.051980894
137	0x3d2451dc	0.04011713
138	0x3e55909c	0.20855945
139	0xbcdbed90	-0.026846677
140	0xbe63d5b4	-0.2224949
141	0x3dc5fe12	0.09667601
142	0xbe1b640e	-0.15174887
143	0x3e4141a7	0.188727
144	0x3df6312b	0.12021097
145	0xbd1c1257	-0.038103428
146	0xbad6e752	-0.0016395843
147	0x3d99b6a2	0.075055376
148	0x3dccd21a	0.10001011
149	0x3e04f432	0.12983778
150	0xbd55e0b2	-0.05221624
151	0xbe3dc02a	-0.18530336
152	0xbd480b8c	-0.048839137
153	0xbdd5e808	-0.10444647
154	0xbe580843	-0.21096902
155	0xbdec2239	-0.11529965
156	0xbe09c225	-0.13452967
157	0xbe56b247	-0.20966445
158	0xbd386593	-0.045018744
159	0x3c6b5bbf	0.014365136
160	0x3e0cf87b	0.13766663
161	0x3e02845b	0.12745802
162	0xbd90fb2e	-0.07079159
163	0x3d911c5f	0.070854895
164	0x3da0f0da	0.07858439
165	0x3c502078	0.012703054
166	0x3de8ab5c	0.11360809
167	0x3d99f562	0.07517506
168	0x3d5e0df6	0.054212533
169	0xbe338380	-0.17530632
170	0xbdd45cbd	-0.10369251
171	0xbe42479a	-0.18972626
172	0xbdc8ecad	-0.09810767
173	0x3e2721d7	0.16321503
174	0xbc986a0b	-0.018605253
175	0xbe62b499	-0.22139205
176	0xbc1bdb9d	-0.009512809
177	0xbc9210d0	-0.017830282
178	0x3df447dc	0.119277686
179	0x3e348ed4	0.1763261
180	0x3e54b642	0.20772651
181	0xbd5822e3	-0.052767646
182	0xbdc214ff	-0.09476661
183	0xbd59730d	-0.053088237
184	0xbd92fcf9	-0.07177157
185	0xbe2cf80d	-0.16891499
186	0x3d8fd062	0.07022168
187	0x3e4054a5	0.1878229
188	0xbe029f00	-0.12755966
189	0x3c5df6a0	0.0135475695
190	0x3e0072ce	0.12543795
191	0x3e51f368	0.20503008
192	0x3df92588	0.12165362
193	0xbd9bea1b	-0.076130114
194	0xbcfae4d1	-0.030626686
195	0xbdadb92b	-0.084825836
196	0xbda2b61e	-0.07944892
197	0xbe163d0f	-0.1467173
198	0x3ce299cf	0.027661232
199	0x3e0234b2	0.12715414
