InvariantStock-main/best_models/best_feat_mask_InvariantStock_0.pt (torch, 19400 bytes, 10 tensors)

normalize.weight f4 [20]
1.0 1.0 1.0 1.0 1.0 1.0 1.0 1.0
1.0 1.0 1.0 1.0 1.0 1.0 1.0 1.0
1.0 1.0 1.0 1.0
00000000: 0000 803f 0000 803f 0000 803f 0000 803f
00000010: 0000 803f 0000 803f 0000 803f 0000 803f
00000020: 0000 803f 0000 803f 0000 803f 0000 803f
00000030: 0000 803f 0000 803f 0000 803f 0000 803f
00000040: 0000 803f 0000 803f 0000 803f 0000 803f

normalize.bias f4 [20]
0.0 0.0 0.0 0.0 0.0 0.0 0.0 0.0
0.0 0.0 0.0 0.0 0.0 0.0 0.0 0.0
0.0 0.0 0.0 0.0
00000000: 0000 0000 0000 0000 0000 0000 0000 0000
00000010: 0000 0000 0000 0000 0000 0000 0000 0000
00000020: 0000 0000 0000 0000 0000 0000 0000 0000
00000030: 0000 0000 0000 0000 0000 0000 0000 0000
00000040: 0000 0000 0000 0000 0000 0000 0000 0000

linear.weight f4 [20, 20]
-0.15874274 0.22047468 0.074467435 0.20254336 0.077432066 0.22099644 -0.03869905 -0.040111944
0.057061475 -0.14068224 -0.16497932 0.0023935803 0.23679116 0.06897122 -0.08403302 0.07675513
0.12941682 0.17607532 0.22033024 0.21093044 0.21598427 -0.088906854 0.23476332 0.2590228
-0.2848893 0.18010017 0.23418202 0.13722603 0.13782886 0.19530216 0.018759474 -0.1407934
-0.022940818 0.14041008 -0.11364357 0.2333969 0.13057068 0.0017182009 0.1670326 -0.15774691
0.03592112 -0.17057267 0.15808187 0.08101567 0.120574534 -0.20570682 0.16577667 -0.2749447
0.12582207 0.086716734 0.10385027 -0.17549224 -0.14058891 -0.020204555 0.19719905 0.16993919
0.18795748 -0.02618821 -0.059903234 -0.19938071 0.08694448 0.11783727 -0.0029657094 0.17801398
-0.32168403 0.0660875 0.23146021 -0.11971494 -0.08879906 -0.05625657 0.24157746 -0.016734911
0.18447852 -0.0031362122 0.17283043 -0.06540044 0.12763637 0.2111595 -0.015195092 0.036366213
-0.2904419 -0.2417169 -0.2808464 0.09951199 -0.07486557 0.12651989 0.026103126 0.1275292
0.20315997 -0.13549429 -0.13168624 -0.07033134 0.033232383 -0.030371753 0.08627892 0.14242752
0.09363943 -0.19152857 -0.13817231 0.119671956 -0.08267992 -0.1523991 -0.048954476 0.17271335
0.0855237 -0.2499202 0.13512258 0.022282075 0.24334505 0.27831417 -0.09110784 -0.0047520795
0.18136424 -0.19902715 0.21733728 0.16888463 0.19724411 -0.029417694 0.1789741 0.07256901
0.1380347 0.045201767 -0.038017828 -0.26411355 -0.24433416 0.28303826 0.1560957 -0.08993253
0.21956559 -0.092557475 0.15906335 0.19884336 -0.092824064 0.073839575 0.17058901 0.052371122
0.10448413 0.10963447 -0.06673251 -0.13817123 0.013983124 -0.24936388 -0.25179288 -0.051646166
-0.15875524 0.057791803 0.077010415 -0.22431895 -0.10978131 0.20705757 0.014703227 -0.0014193158
-0.0663983 0.086769946 0.07672866 0.07913254 0.0029183184 0.06639804 0.14784285 0.18953806
-0.30559716 -0.0106751425 -0.17298701 -0.1559571 -0.19427462 0.13095684 -0.12793396 -0.066602826
-0.017545879 0.0716158 0.08844134 0.11892771 -0.18848988 -0.062908195 0.026390875 -0.14207445
-0.057671063 -0.11757116 0.11126762 0.08247212 -0.14556482 -0.17321025 -0.015396358 0.00584162
0.41174933 0.2805506 0.08466182 0.048722494 0.18581688 0.12654372 0.11104329 0.21677433
0.12733138 0.03909054 -0.20207503 -0.08086231 0.13247885 0.30802202 0.08107246 -0.13190721
-0.18295132 0.21260113 -0.06997893 -0.059258122 -0.11457582 0.09388811 0.20289508 0.17155983
0.17087807 0.23268127 -0.23035693 -0.07070798 -0.06311805 0.08581231 0.21699885 0.045881186
0.19057238 -0.21867728 -0.040628575 0.025745878 0.017221974 0.20880063 -0.05125127 0.220356
-0.10802893 0.0066859806 -0.008955402 0.23304775 -0.016700279 0.019538179 0.19495063 0.23932995
-0.03524434 0.058245882 -0.022836568 -0.19241573 -0.24260938 -0.019183567 -0.04670583 0.021287184
-0.112049855 0.05160002 0.21989596 0.024695894 0.26364735 -0.054650992 0.21934406 0.004518877
0.14055456 -0.037847854 -0.028630221 0.039141938 0.07542198 0.030631417 -0.08170379 -0.019759571
00000000: 758d 22be 1dc4 613e 6282 983d 8767 4f3e
00000010: b494 9e3d e44c 623e e582 1ebd 6c4c 24bd
00000020: 4bb9 693d 010f 10be 57f0 28be 9ddd 1c3b
00000030: 6279 723e c840 8d3d 8119 acbd cb31 9d3d
00000040: d885 043e 174d 343e 409e 613e 26fe 573e
00000050: fb2a 5d3e cc14 b6bd cc65 703e a39e 843e
00000060: 03dd 91be 2e6c 383e 69cd 6f3e fb84 0c3e
00000070: 0223 0d3e 4afd 473e 78ad 993c 252c 10be
00000080: 62ee bbbc a9c7 0f3e f6bd e8bd 99ff 6e3e
00000090: 52b4 053e 4135 e13a 980a 2b3e 6888 21be
000000a0: 0622 133d 9aaa 2ebe 37e0 213e 8beb a53d
000000b0: c8ef f63d cfa4 52be 5cc1 293e 8dc5 8cbe
000000c0: 80d7 003e 8b98 b13d 73af d43d 3db4 33be
000000d0: 8af6 0fbe 0684 a5bc 8cee 493e 8a04 2e3e
000000e0: ed77 403e a888 d6bc 185d 75bd 752a 4cbe
000000f0: f30f b23d ab54 f13d 595c 42bb 4c49 363e
00000100: c5b3 a4be e258 873d e803 6d3e 1b2d f5bd
00000110: 48dc b5bd 4a6d 66bd 1560 773e a717 89bc
00000120: f0e7 3c3e e988 4dbb 76fa 303e aaf0 85bd
00000130: 1cb3 023e 323a 583e d6f4 78bc bdf4 143d
00000140: cdb4 94be a384 77be 19cb 8fbe f1cc cb3d
00000150: 1f53 99bd 6e8e 013e 39d6 d53c 0497 023e
00000160: 2b09 503e 04bf 0abe c2d8 06be e109 90bd
00000170: ae1e 083d 2fce f8bc 01b3 b03d 85d8 113e
00000180: 08c6 bf3d 1120 44be 0b7d 0dbe 9216 f53d
00000190: 1754 a9bd 820e 1cbe 7d84 48bd c5db 303e
000001a0: 0d27 af3d 15eb 7fbe 935d 0a3e e688 b63c
000001b0: 722f 793e 327f 8e3e bf96 babd 55b7 9bbb
000001c0: 8cb7 393e c6cd 4bbe aa8d 5e3e 18f0 2c3e
000001d0: 5cfa 493e 60fd f0bc fd44 373e 109f 943d
000001e0: f858 0d3e 7d25 393d 95b8 1bbd e439 87be
000001f0: bc32 7abe 64ea 903e 8dd7 1f3e 8c2e b8bd
00000200: cdd5 603e c68e bdbd 81e1 223e 989d 4b3e
00000210: 8b1a bebd 3439 973d e3ae 2e3e 1a83 563d
00000220: c7fb d53d 0988 e03d 0eab 88bd c27c 0dbe
00000230: 7919 653c 3f59 7fbe ffea 80be ee8a 53bd
00000240: bc90 22be 19b7 6c3d a3b7 9d3d deb3 65be
00000250: 06d5 e0bd e606 543e cee5 703c 5608 baba
00000260: d5fb 87bd 71b4 b13d ea23 9d3d 3e10 a23d
00000270: 4241 3f3b b2fb 873d 1e64 173e 4416 423e
00000280: 3b77 9cbe cbe6 2ebc 8223 31be 38b3 1fbe
00000290: edef 46be 8d19 063e 1f01 03be 1067 88bd
000002a0: 60bc 8fbc 4eab 923d bc20 b53d 5f90 f33d
000002b0: 7e03 41be 03d6 80bd ad31 d83c f77b 11be
000002c0: 7e38 6cbd 26c9 f0bd 47e0 e33d 25e7 a83d
000002d0: f20e 15be 075e 31be 0241 7cbc 0f6b bf3b
000002e0: cfd0 d23e 54a4 8f3e 2d63 ad3d 3d91 473d
000002f0: c846 3e3e ad94 013e aa6a e33d 17fa 5d3e
00000300: 2863 023e 671d 203d c2ec 4ebe 249b a5bd
00000310: 89a8 073e 10b5 9d3e 5109 a63d af12 07be
00000320: 9757 3bbe 1cb4 593e 1d51 8fbd a5b8 72bd
00000330: baa6 eabd 6948 c03d bac3 4f3e 61ad 2f3e
00000340: a9fa 2e3e 0044 6e3e b0e2 6bbe 58cf 90bd
00000350: 0944 81bd 5dbe af3d f234 5e3e e9ed 3b3d
00000360: 6825 433e f0ec 5fbe 266a 26bd 05e9 d23c
00000370: 1915 8d3c d5cf 553e daec 51bd 01a5 613e
00000380: 463e ddbd 1216 db3b aeb9 12bc 12a4 6e3e
00000390: 06cf 88bc 880e a03c 23a1 473e e912 753e
000003a0: 5e5c 10bd 3c93 6e3d c113 bbbc a108 45be
000003b0: 986e 78be db26 9dbc 9d4e 3fbd 7662 ae3c
000003c0: 657a e5bd 8b5a 533d 682c 613e 0b4f ca3c
000003d0: c9fc 863e b8d9 5fbd bb9b 603e 1613 943b
000003e0: 89ed 0f3e 5a06 1bbd ed89 eabc 4c53 203d
000003f0: d776 9a3d bdee fa3c 5154 a7bd d3de a1bc

linear.bias f4 [20]
0.25664872 0.30724245 -0.049470365 -0.07180268 -0.021455498 0.080773085 -0.11775905 -0.1411049
0.03451804 0.13825732 0.10403867 -0.06583967 -0.09259355 0.17903294 0.08447761 0.2701943
0.06269514 0.11833544 -0.07381133 -0.19807841
00000000: 7667 833e e24e 9d3e 70a1 4abd 490d 93bd
00000010: 71c3 afbc 5c6c a53d a82b f1bd ce7d 10be
00000020: ca62 0d3d 5493 0d3e 3a12 d53d f3d6 86bd
00000030: b0a1 bdbd 6954 373e 9902 ad3d e856 8a3e
00000040: 4f66 803d da59 f23d 652a 97bd 11d5 4abe

gru.weight_ih_l0 f4 [60, 20]
0.23191135 0.07589056 0.2277342 0.18311733 -0.07588981 -0.008840388 0.14385474 -0.13205723
0.24102429 0.066515796 0.1924732 0.24257515 -0.15589906 0.028188627 -0.036142576 -0.12571216
0.21265401 0.28575668 0.22368073 0.20931172 -0.046789475 0.026097396 0.107685186 -0.058909647
0.16198842 0.2879226 -0.16264956 -0.009876149 0.16443963 -0.083715826 -0.01991256 0.23186366
0.13912505 -0.06082059 0.013249539 0.031520586 0.30444703 -0.11446489 0.028768823 0.01386008
0.3091287 0.33289123 0.020637302 -0.0031588487 0.17951292 -0.007947933 -0.07232141 0.14099774
0.03503309 0.026909353 0.24140061 0.058983788 0.21698485 0.25502262 0.012047674 0.17902574
0.10594992 0.10814682 0.14825493 -0.18249671 -0.044455137 0.021812113 0.16053426 -0.17444368
0.2257141 0.2335128 0.10256317 0.112147644 -0.10681974 0.078879744 -0.0803519 -0.024588589
-0.070725374 -0.02805372 -0.04877703 -0.12697381 -0.25833356 -0.1495641 -0.02110891 -0.123315476
0.09443208 -0.03730516 -0.09770515 0.18032327 -0.116929874 -0.07742438 -0.016730193 -0.004596425
-0.18860708 0.14490126 0.119793415 0.19357139 -0.021105282 0.32508823 0.26319042 0.01190527
0.17812438 0.039491706 0.04740976 0.214407 0.029426735 0.0736622 -0.29232296 0.11276728
-0.23837407 0.16049491 -0.043583907 -0.14155704 -0.30275765 -0.28285155 -0.04509435 0.1308956
-0.19780162 0.2056913 0.21505445 -0.21021517 -0.0759417 0.21618314 -0.2572438 -0.1155685
0.18657139 0.14046074 -0.18473046 0.24285544 0.08929482 -0.20045157 -0.2551303 0.051992882
-0.12593548 0.065556526 0.09752446 0.14026575 0.101536915 0.24621108 0.011403258 0.04456573
-0.05175745 0.1605534 -0.2267787 0.13874853 0.28218284 0.06320879 0.15315361 0.2659851
0.09089238 0.17343019 0.14958934 0.19169806 0.18308365 0.30530357 0.38175252 -0.0041659367
0.11073676 0.18320182 -0.1258196 -0.13617451 0.14428559 0.25120306 0.25269789 -0.021100268
0.05936177 -0.0693658 0.123346716 -0.122640155 0.21891154 0.15431482 0.06481105 0.29410923
0.27009714 0.19570334 0.21649869 0.21707036 -0.110523336 -0.100730784 0.16638601 -0.005524801
0.2976013 0.094172135 0.2755692 0.15478872 0.14604785 0.18508264 -0.08923069 -0.16163668
0.25661245 -0.11332022 -0.13037144 -0.022357082 0.1893638 0.073734164 0.31985003 0.1440489
0.15076666 0.0016242738 0.14991976 0.11388865 0.3686316 0.058083694 0.24541579 -0.057596054
-0.021745497 0.38907388 0.21863948 0.19279593 -0.08570758 0.24180704 -0.0061256373 0.22788213
0.17941609 -0.123236686 0.019567836 0.36365688 0.24289046 0.18650419 0.11422012 0.12602359
-0.01242847 0.1645803 -0.090588234 0.06840134 -0.073361404 -0.058557186 0.19371718 0.32641038
-0.045361113 0.021074357 -0.010098036 0.17359655 -0.069555655 -0.07273338 0.13196604 0.02125643
0.12502323 0.0026326855 0.22196047 0.03233797 0.23253718 0.0846597 0.26491958 -0.11444468
0.2650757 0.018763395 0.18914285 -0.3275731 0.14610676 -0.0031279838 -0.10030446 -0.082324475
0.15998244 0.14292797 0.09660838 0.25555912 0.28704712 0.06718233 -0.02510627 0.08613356
00000000: 2b7a 6d3e 836c 9b3d 2733 693e 1c83 3b3e
00000010: 1e6c 9bbd 46d7 10bc a84e 133e 033a 07be
00000020: 12cf 763e 6f39 883d b217 453e 9f65 783e
00000030: 01a4 1fbe d6eb e63c 3d0a 14bd b0ba 00be
00000040: f9c1 593e b34e 923e 900c 653e d055 563e
00000050: 52a6 3fbd 35ca d53c 0d8a dc3d 3e4b 71bd
00000060: 4be0 253e 976a 933e 9b8d 26be 92cf 21bc
00000070: dd62 283e 3473 abbd aa1f a3bc ab6d 6d3e
00000080: cc76 0e3e 031f 79bd 9814 593c bb1b 013d
00000090: 7be0 9b3e 916c eabd 98ac eb3c 6415 633c
000000a0: 1e46 9e3e b870 aa3e 8f0f a93c b004 4fbb
000000b0: 3cd2 373e 0c38 02bc 3f1d 94bd b661 103e
000000c0: db7e 0f3d 0171 dc3c b931 773e fc98 713d
000000d0: 4731 5e3e 5392 823e 9b63 453c 8652 373e
000000e0: 46fc d83d 147c dd3d 24d0 173e 6be0 3abe
000000f0: 9716 36bd 51af b23c 1863 243e 5da1 32be
00000100: 9921 673e fb1d 6f3e a40c d23d aaad e53d
00000110: 4fc4 dabd b48b a13d 898f a4bd 026e c9bc
00000120: 77d8 90bd ead0 e5bc 6cca 47bd 6c05 02be
00000130: 4c44 84be 5527 19be 98ec acbc d38c fcbd
00000140: 9b65 c13d 4ccd 18bd a319 c8bd aaa6 383e
00000150: ee78 efbd ac90 9ebd c20d 89bc 9c9d 96bb
00000160: 3722 41be ff60 143e 4056 f53d 9437 463e
00000170: fce4 acbc f771 a63e e5c0 863e 520e 433c
00000180: 3d66 363e 0ec2 213d bd30 423d 828d 5b3e
00000190: 5610 f13c 35dc 963d 5bab 95be 88f2 e63d
000001a0: 5518 74be c758 243e 0a85 32bd 54f4 10be
000001b0: 0d03 9bbe ebd1 90be dab4 38bd 7f09 063e
000001c0: 828c 4abe bda0 523e 3c37 5c3e a542 57be
000001d0: 5287 9bbd 1d5f 5d3e 76b5 83be 2daf ecbd
000001e0: 920c 3f3e f1d4 0f3e fb29 3dbe 19af 783e
000001f0: 34e0 b63d 2d43 4dbe 70a0 82be 7df6 543d
00000200: 3bf5 00be 8042 863d e7ba c73d d3a1 0f3e
00000210: 96f2 cf3d c21e 7c3e bbd4 3a3c 8e8a 363d
00000220: 9fff 53bd 1c68 243e ad38 68be 1814 0e3e
00000230: 457a 903e 9c73 813d 4dd4 1c3e 332f 883e
00000240: c925 ba3d af97 313e f32d 193e 7f4c 443e
00000250: 487a 3b3e c050 9c3e 1175 c33e 6982 88bb
00000260: f4c9 e23d 4299 3b3e dad6 00be 5571 0bbe
00000270: 9abf 133e b09d 803e 9e61 813e 78da acbc
00000280: 5425 733d a80f 8ebd 349d fc3d c32a fbbd
00000290: 592a 603e b404 1e3e a8bb 843d 7c95 963e
000002a0: 2c4a 8a3e 7566 483e d5b1 5d3e b147 5e3e
000002b0: 0f5a e2bd f14b cebd 1861 2a3e 6409 b5bb
000002c0: 335f 983e 52dd c03d 6817 8d3e ef80 1e3e
000002d0: 918d 153e 4e86 3d3e 94be b6bd 1684 25be
000002e0: b562 833e 6e14 e8bd 1780 05be 3326 b7bc
000002f0: 96e8 413e f001 973d 62c3 a33e 8e81 133e
00000300: 9362 1a3e 96e5 d43a 9184 193e 743e e93d
00000310: 48bd bc3e 2be9 6d3d 474e 7b3e d7e9 6bbd
00000320: 9d23 b2bc b134 c73e 07e3 5f3e 4c6c 453e
00000330: 7587 afbd 449c 773e 92b9 c8bb ef59 693e
00000340: dab8 373e 8463 fcbd ba4c a03c 3c31 ba3e
00000350: 47b8 783e f4fa 3e3e 3dec e93d 540c 013e
00000360: c8a0 4bbc bd87 283e 5386 b9bd 0016 8c3d
00000370: 813e 96bd a9d9 6fbd cc5d 463e 431f a73e
00000380: 93cc 39bd 21a4 ac3c 3c72 25bc 4bc3 313e
00000390: 3273 8ebd 3df5 94bd 1b22 073e f721 ae3c
000003a0: 1706 003e 2289 2c3b 9b49 633e d274 043d
000003b0: 3a1e 6e3e 1162 ad3d 8aa3 873e f961 eabd
000003c0: 01b8 873e b1b5 993c aaae 413e a9b7 a7be
000003d0: 039d 153e dcfe 4cbb 6d6c cdbd bc99 a8bd
000003e0: 70d2 233e b65b 123e 9dda c53d a5d8 823e
000003f0: d7f7 923e e496 893d aaab cdbc cb66 b03d

gru.weight_hh_l0 f4 [60, 20]
0.22202866 0.20872201 0.3570043 -0.17823282 0.05063945 -0.075164825 -0.19562972 -0.29938406
0.4024306 -0.29856747 -0.027667945 0.16246624 -0.018542008 -0.21635431 -0.25878862 0.038504872
-0.21150628 -0.062954545 0.02350646 -0.09146818 -0.07997846 -0.07830059 -0.1258742 -0.042477537
0.07226298 0.015681596 0.0096082855 -0.16156611 0.2025439 0.0628321 -0.24137463 0.22590382
0.035204425 -0.029945638 -0.27809602 0.093159325 0.083492436 0.06856083 0.14805323 -0.16299908
0.3493583 0.12913036 0.12223178 0.07956575 0.11503603 -0.23519689 -0.14024685 0.04202142
0.18285011 -0.17987469 -0.30819553 -0.03544606 0.021616869 -0.14678381 -0.0078021195 -0.0060934816
0.03920133 0.06595658 0.109672785 -0.08739991 0.04486172 -0.11027576 -0.08063683 -0.055773646
-0.05273797 0.2570141 0.12062418 0.011840745 -0.23154417 -0.1236495 0.00025391643 -0.0425516
0.008278693 -0.13600099 0.29350802 0.008973921 0.06567551 0.15346205 0.08186128 -0.09712937
0.20391604 0.052674823 0.07399674 -0.07719618 0.3148395 -0.19429736 -0.3273386 -0.079089485
0.040041275 0.0103505105 -0.28189722 -0.019858953 0.09939791 -0.16828176 0.0059823683 -0.19876623
-0.0023114136 -0.21585995 0.0034807317 -0.107838795 0.14272146 -0.1497212 0.17743282 0.12808362
0.07873086 -0.24773343 -0.15921125 -0.111910395 -0.16259733 0.044777006 -0.25445798 -0.3104145
-0.025444178 -0.3150677 0.17983188 -0.1325627 0.3210454 0.16580372 0.07677045 -0.07357085
0.16105367 -0.21532163 0.16863045 -0.21843855 0.22263007 -0.21339694 0.007219983 0.04613698
0.027012905 -0.013490543 -0.14018753 -0.029884249 0.16625318 0.115632825 -0.21033892 -0.035339262
0.0887125 0.09813919 0.1592426 0.08464098 -0.0519584 0.060105983 0.03883632 0.19325997
0.043881603 -0.025721435 -0.08640523 -0.10539131 0.21597949 -0.17022656 -0.23174736 0.17024587
0.20721513 0.061718304 -0.08711327 0.08977395 0.11144197 -0.1450248 0.09020255 -0.13164027
0.17977288 -0.0804709 0.26631686 0.15818182 -0.062325403 -0.19851299 -0.22679715 -0.2857905
0.26029673 -0.30834273 0.0030588123 0.00083068485 0.31067836 -0.16493565 -0.26897278 0.102058075
-0.24750204 -0.12006312 -0.06836442 -0.13012171 0.058529854 0.0958727 0.10123877 0.09004129
0.34485593 -0.084596805 -0.00017476636 -0.19689026 0.08278135 -0.33611876 -0.27886528 -0.067428134
0.19491908 -0.15091679 -0.3291563 -0.15876643 0.18094636 -0.17091821 -0.103220105 0.061818715
0.042292103 -0.019924609 0.037727773 -0.17867187 0.2467079 -0.008280149 -0.29934973 -0.24852927
0.22479892 0.050876837 -0.23860541 -0.23016617 0.32904705 -0.2837631 -0.3066126 -0.2760815
0.1077852 0.061478756 0.28782254 0.033641916 -0.13053139 0.36891273 0.20442307 0.09761326
0.10300232 -0.21004023 -0.118126415 0.09217239 0.14082143 -0.29104596 0.13465303 0.19473682
0.22732407 0.088177636 0.03176466 0.19466762 0.11718378 -0.20063002 -0.076538764 0.16056734
-0.103416115 -0.1943586 -0.06217498 -0.14106429 0.2461472 0.022500632 -0.2711224 -0.24418682
0.062134575 -0.22772482 -0.20093404 -0.021407356 0.35066882 -0.32631406 -0.09588708 -0.17429881
00000000: 7b5b 633e 39bb 553e 45c9 b63e aa82 36be
00000010: 506b 4f3d 04f0 99bd 2853 48be de48 99be
00000020: 620b ce3e d6dd 98be e3a7 e2bc 8d5d 263e
00000030: 69e5 97bc fc8b 5dbe f17f 84be 49b7 1d3d
00000040: 1a95 58be 50ee 80bd 9f90 c03c ab53 bbbd
00000050: bfcb a3bd 0f5c a0bd 2be5 00be edfc 2dbd
00000060: 9dfe 933d b176 803c 126c 1d3c 9671 25be
00000070: ab67 4f3e 1eae 803d e92a 77be 5553 673e
00000080: 8432 103d 8e50 f5bc 9a62 8ebe 51ca be3d
00000090: 15fe aa3d 9f69 8c3d 449b 173e 3be9 26be
000000a0: 17df b23e c03a 043e a854 fa3d 5ef3 a23d
000000b0: 0398 eb3d 74d7 70be df9c 0fbe a71e 2c3d
000000c0: 0f3d 3b3e 1231 38be cecb 9dbe e32f 11bd
000000d0: dc15 b13c 7f4e 16be eca8 ffbb d4ab c7bb
000000e0: 9391 203d 3e14 873d 209c e03d b9fe b2bd
000000f0: ecc0 373d 42d8 e1bd ec24 a5bd e872 64bd
00000100: c503 58bd 5a97 833e cf09 f73d afff 413c
00000110: ea19 6dbe f33b fdbd 1620 8539 964a 2ebd
00000120: 5ba3 073c d843 0bbe af46 963e 5a07 133c
00000130: e280 863d 2825 1d3e e3a6 a73d c3eb c6bd
00000140: 5ecf 503e 8ec1 573d 9a8b 973d 0819 9ebd
00000150: a532 a13e e3f5 46be ed98 a7be abf9 a1bd
00000160: 5202 243d 3095 293c d554 90be 3eaf a2bc
00000170: 2291 cb3d 0e52 2cbe be07 c43b 6089 4bbe
00000180: 167b 17bb 640a 5dbe fd1c 643b 96da dcbd
00000190: 9325 123e 8450 19be f3b0 353e 5a28 033e
000001a0: a53d a13d d5ad 7dbe 4608 23be 4731 e5bd
000001b0: ea7f 26be 1868 373d 5148 82be a6ee 9ebe
000001c0: 4f70 d0bc 8e50 a1be d925 383e 84be 07be
000001d0: 1060 a43e 73c8 293e d339 9d3d 50ac 96bd
000001e0: 41eb 243e 467d 5cbe 76ad 2c3e 5bae 5fbe
000001f0: 23f9 633e ba84 5abe 9b95 ec3b 21fa 3c3d
00000200: 2b4a dd3c 7007 5dbc 528d 0fbe d0cf f4bc
00000210: 463e 2a3e e7d0 ec3d 1663 57be e7bf 10bd
00000220: e6ae b53d 33fd c83d 7e10 233e 4058 ad3d
00000230: 55d2 54bd b131 763d d512 1f3d f1e5 453e
00000240: 32bd 333d c2b5 d2bc 3af5 b0bd 66d7 d7bd
00000250: ba29 5d3e df4f 2ebe 2e4f 6dbe ef54 2e3e
00000260: 3430 543e 55cc 7c3d 7168 b2bd 68db b73d
00000270: b03b e43d 6281 14be 1dbc b83d b5cc 06be
00000280: 6216 383e edcd a4bd af5a 883e 6afa 213e
00000290: ec48 7fbd fd46 4bbe 833d 68be 2253 92be
000002a0: 9d45 853e 19df 9dbe 5b76 483b 51c2 593a
000002b0: 3c11 9f3e e4e4 28be cdb6 89be d303 d13d
000002c0: 2d71 7dbe a7e3 f5bd a502 8cbd a03e 05be
000002d0: 00bd 6f3d e858 c43d 4656 cf3d 9167 b83d
000002e0: f590 b03e 1741 adbd 7d41 37b9 9a9d 49be
000002f0: 4589 a93d c217 acbe 6ec7 8ebe c317 8abd
00000300: de98 473e ee89 1abe 2d87 a8be ab93 22be
00000310: 014a 393e 2f05 2fbe 1065 d3bd 9f35 7d3d
00000320: 7c3a 2d3d ef38 a3bc 7088 1a3d c2f5 36be
00000330: ffa0 7c3e 76a9 07bc 5e44 99be 757e 7ebe
00000340: b031 663e 3b64 503d fa54 74be aeb0 6bbe
00000350: db78 a83e 6649 91be 54fc 9cbe 8e5a 8dbe
00000360: 7dbe dc3d 26d1 7b3d 7a5d 933e 1bcc 093d
00000370: 05aa 05be 21e2 bc3e 4854 513e 76e9 c73d
00000380: e1f2 d23d c914 57be 43ec f1bd e1c4 bc3d
00000390: 7e33 103e fa03 95be 7ce2 093e 1769 473e
000003a0: a4c7 683e 7a96 b43d a91b 023d f356 473e
000003b0: 0dfe ef3d f571 4dbe 5bc0 9cbd c46b 243e
000003c0: d4cb d3bd f105 47be 31ab 7ebd 2873 10be
000003d0: 030e 7c3e 3f53 b83c 8ed0 8abe 1c0c 7abe
000003e0: d380 7e3d b230 69be a7c1 4dbe 7b5e afbc
000003f0: dd8a b33e a312 a7be 7260 c4bd 637b 32be

gru.bias_ih_l0 f4 [60]
0.20655322 0.2010406 0.2763937 0.11213683 -0.046733614 0.21759641 -0.1088717 0.32406643
-0.043721925 0.0037403852 -0.03716458 0.06774034 0.034247458 0.26969945 0.08471401 -0.13013002
-0.15070216 0.052796263 -0.062076844 -0.05372509 -0.121859476 0.15553735 0.2737591 -0.24595584
0.4001689 -0.34793454 -0.30422756 -0.33152997 -0.18690655 -0.24601509 -0.09964919 -0.25294694
0.009265251 -0.15659963 -0.07441824 0.14364675 -0.35237357 -0.25177905 0.033776335 -0.07893191
0.051818304 -0.013776475 -0.082533464 0.060797352 0.2419859 -0.1945395 -0.17319366 -0.1891649
0.042483717 -0.11748128 -0.20294416 0.115815364 0.11985897 -0.19271523 0.09456203 -0.050155424
0.009630108 0.06446538 0.15582538 0.005130166
00000000: b082 533e 96dd 4d3e 7a83 8d3e ffa7 e53d
00000010: bf6b 3fbd 98d1 5e3e 20f8 debd 09ec a53e
00000020: c315 33bd 4021 753b e339 18bd 73bb 8a3d
00000030: 1047 0c3d 0c16 8a3e 8a7e ad3d ce40 05be
00000040: ab51 1abe e540 583d 4a44 7ebd d70e 5cbd
00000050: 7691 f9bd 2f45 1f3e 272a 8c3e d9db 7bbe
00000060: f0e2 cc3e 7a24 b2be b7c3 9bbe 4cbe a9be
00000070: 6e64 3fbe 61eb 7bbe e014 ccbd 4382 81be
00000080: 48cd 173c a75b 20be 9768 98bd 2218 133e
00000090: 4f6a b4be 2fe9 80be 0e59 0a3d 0ea7 a1bd
000000a0: 6e3f 543d b9b6 61bc 4e07 a9bd a506 793d
000000b0: 27cb 773e 5d35 47be ae59 31be 72b4 41be
000000c0: 6803 2e3d 069a f0bd 98d0 4fbe 9b30 ed3d
000000d0: 9f78 f53d 2457 45be bda9 c13d c66f 4dbd
000000e0: 9ac7 1d3c 6d06 843d b090 1f3e f41a a83b

gru.bias_hh_l0 f4 [60]
0.29641524 0.081042126 0.012014225 0.16726816 0.2667801 -0.043372076 0.2084564 0.18197551
0.24251504 0.014022614 -0.08824891 0.1414964 -0.00737905 0.13610032 -0.04860713 -0.0866105
-0.18049283 -0.029001914 0.029765896 -0.15708183 0.1393743 -0.00544612 0.20177141 -0.105698176
0.14771995 -0.5400069 -0.26048252 -0.17373063 -0.010624788 -0.29187974 0.2140447 -0.11555246
0.22550406 0.06611737 -0.05024703 -0.043976437 -0.21007665 -0.2199623 0.18721873 -0.22501434
0.26614347 0.09797678 0.23372738 0.1629616 0.14392401 -0.21758807 -0.0061343163 -0.0781717
0.089353845 -0.27637213 -0.27274936 0.12184805 0.1459598 0.115423195 -0.27148837 -0.11047341
-0.09882972 -0.12137811 0.13535999 -0.007393109
00000000: bdc3 973e 6af9 a53d 50d7 443c 5848 2b3e
00000010: 6797 883e eba6 31bd 9875 553e ca57 3a3e
00000020: dd55 783e 1bbf 653c d8bb b4bd 6fe4 103e
00000030: f5cb f1bb e25d 0b3e 4518 47bd d960 b1bd
00000040: 1dd3 38be 6c95 edbc 9cd7 f33c 0fda 20be
00000050: 23b8 0e3e 5e75 b2bb 2a9d 4e3e 4978 d8bd
00000060: e643 173e e43d 0abf f75d 85be 71e6 31be
00000070: 9713 2ebc 4371 95be 892e 5b3e c5a6 ecbd
00000080: 89ea 663e 8b68 873d d4cf 4dbd a320 34bd
00000090: 551e 57be cc3d 61be 44b6 3f3e 296a 66be
000000a0: f543 883e 0da8 c83d 3b56 6f3e 68df 263e
000000b0: d160 133e 68cf 5ebe 6002 c9bb 7c18 a0bd
000000c0: 26ff b63d a680 8dbe cea5 8bbe 788b f93d
000000d0: 7c76 153e ff62 ec3d 8600 8bbe e23f e2bd
000000e0: 3c67 cabd 1695 f8bd cf9b 0a3e e541 f2bb

generator_fc.weight f4 [40, 20]
-0.12333442 -0.019385582 -0.2981448 -0.013825303 -0.3618214 0.16403061 0.32093865 0.29962078
0.06232565 0.04713302 -0.036034293 0.16386147 -0.07525904 0.16107757 0.367162 0.18539466
-0.1503238 0.2016645 -0.13607472 -0.031510543 0.20954728 0.010844105 0.24815102 0.053248618
0.2707043 -0.17799696 0.020489208 -0.18966766 0.04206755 -0.14062771 -0.2694878 -0.050483827
0.07242422 -0.14061382 0.059948348 -0.11856301 0.18000315 0.16467392 0.0867735 0.081234984
-0.28246057 -0.01965935 0.06112407 0.01773063 -0.30112806 0.10063562 0.041358884 -0.02582306
0.031030912 0.14951114 0.1596536 -0.17860939 -0.11327784 0.27624455 0.22841176 0.31106025
-0.084902495 0.001659304 0.01619176 -0.096469395 0.23617405 0.22123049 0.30069166 0.045675177
0.31842718 0.078791626 -0.32155833 0.044530053 0.2364514 0.027501568 -0.23510669 0.14385095
0.15507683 0.007566607 -0.43192515 0.1023261 -0.14997663 0.12022149 0.3214454 0.22735555
-0.28279203 0.053267464 -0.28097022 0.06915985 -0.17410772 0.34665537 0.14974013 -0.14442237
0.19101681 -0.01964 -0.08758662 0.37244138 -0.074747235 0.29961297 0.15205653 0.30832365
-0.14865659 -0.035140254 -0.10579259 -0.101555295 0.30878648 0.006279014 0.05300845 -0.34782782
0.19575603 -0.23901628 0.1431104 0.12970462 -0.092749655 0.1515451 0.19757621 -0.29380545
0.020047383 -0.2963764 -0.00061158405 -0.52232486 0.3829951 0.30358523 0.35255033 0.25339794
0.022515317 0.055793457 0.020713521 0.017511336 0.11654821 -0.21177407 -0.18011147 0.102957554
0.18658422 -0.24365647 -0.3055317 -0.19806552 0.015055651 -0.14625119 0.0895809 -0.16066201
0.12592238 0.22879449 0.15500975 0.0021250413 -0.13423292 -0.15847202 -0.12389926 -0.16575368
0.092157826 0.23395902 0.2837796 0.28152078 -0.020770323 0.041293103 0.08262543 -0.048553977
0.0669557 -0.03529582 0.30220106 0.25989407 -0.16901623 0.05970272 -0.18434888 0.3373385
-0.072277546 -0.077279635 0.0038225995 0.19395135 0.14411135 -0.06805947 -0.06509525 0.11405336
-0.22930984 0.11223829 -0.016246228 -0.102494985 -0.21823093 -0.11541896 -0.036280695 0.023969114
0.4678483 0.16535544 0.34748605 -0.37758055 -0.068527564 -0.08551254 -0.26773977 0.076461434
0.18555778 -0.097506635 -0.15841916 0.02893752 0.20530589 -0.103705786 -0.03973792 0.26037052
0.19737998 0.33927009 0.27017486 0.30907416 -0.16495173 -0.4039018 0.056867547 0.0936263
-0.13908936 -0.12029285 -0.22571623 -0.22160962 -0.042752862 0.08730432 -0.15020876 -0.17433912
0.094506666 0.048438363 0.108998656 -0.13847537 0.053312145 -0.09978928 0.22614817 0.12956923
-0.15453847 0.0886343 0.19011815 -0.0095362235 0.0033919727 -0.09309403 -0.10267052 0.14788806
0.17934662 0.21543336 0.004534273 -0.022219023 0.0072724735 0.1309953 -0.051000122 0.09510851
0.015559264 -0.09859298 0.14235382 0.022917146 0.062486637 -0.012567481 0.073984504 -0.060565148
0.05253639 -0.09027184 0.050890967 -0.12720473 -0.030199677 -0.27640522 -0.052698635 -0.2068528
-0.099589445 -0.077081345 -0.24045399 -0.22158146 0.19040914 0.046086296 -0.11868059 -0.2722183
00000000: c296 fcbd 83ce 9ebc 6fa6 98be 8683 62bc
00000010: a840 b9be a4f7 273e 1252 a43e e567 993e
00000020: 2e49 7f3d 8e0e 413d b298 13bd 4dcb 273e
00000030: 6921 9abd 85f1 243e a8fc bb3e 19d8 3d3e
00000040: 7bee 19be 2481 4e3e 2c57 0bbe 3311 01bd
00000050: 9093 563e 79ab 313c 4d1b 7e3e 391b 5a3d
00000060: c199 8a3e d644 36be fcd8 a73c 3d38 42be
00000070: 064f 2c3d b600 10be 4efa 89be 21c8 4ebd
00000080: 2653 943d 12fd 0fbe 668c 753d 2ad1 f2bd
00000090: bf52 383e 48a0 283e 4eb6 b13d 875e a63d
000000a0: ac9e 90be a50c a1bc 3c5d 7a3d d33f 913c
000000b0: 752d 9abe 0c1a ce3d ef67 293d e28a d3bc
000000c0: 8a34 fe3c 7319 193e 3c7c 233e 61e5 36be
000000d0: 36fe e7bd ed6f 8d3e c6e4 693e 4a43 9f3e
000000e0: 5ce1 adbd 017d d93a 95a4 843c bf91 c5bd
000000f0: 9cd7 713e 3f8a 623e 42f4 993e e515 3b3d
00000100: e308 a33e 815d a13d 4ba3 a4be 2565 363d
00000110: 5120 723e f84a e13c cfbf 70be aa4d 133e
00000120: 76cc 1e3e 4df1 f73b 4b25 ddbe 5990 d13d
00000130: 7993 19be af36 f63d 7e94 a43e e5cf 683e
00000140: 1eca 90be fc2e 5a3d 54db 8fbe aea3 8d3d
00000150: 4b49 32be d07c b13e 7a55 193e 75e3 13be
00000160: e999 433e 11e4 a0bc 9d60 b3bd a3b0 be3e
00000170: 1415 99bd df66 993e b5b4 1b3e 99dc 9d3e
00000180: 6f39 18be 3aef 0fbd c9a9 d8bd 39fc cfbd
00000190: 4319 9e3e 30c0 cd3b 631f 593d 7d16 b2be
000001a0: 4574 483e afc0 74be 888b 123e 4ad1 043e
000001b0: 88f3 bdbd a42e 1b3e 6b51 4a3e ab6d 96be
000001c0: 693a a43c a6be 97be b652 20ba 15b7 05bf
000001d0: ef17 c43e 866f 9b3e 7a81 b43e 60bd 813e
000001e0: 0b72 b83c ae87 643d 67af a93c ef73 8f3c
000001f0: d4b0 ee3d 4ddb 58be 246f 38be 69db d23d
00000200: ef0f 3f3e 1581 79be a76e 9cbe b0d1 4abe
00000210: faab 763c dfc2 15be 3176 b73d 9584 24be
00000220: ccf1 003e 1a49 6a3e e0ba 1e3e 4744 0b3b
00000230: 5b74 09be 7d46 22be e5be fdbd 55bb 29be
00000240: 3ebd bc3d f492 6f3e 8f4b 913e 7e23 903e
00000250: 8626 aabc f522 293d 8537 a93d 89e0 46bd
00000260: 1220 893d 5a92 10bd 19ba 9a3e d610 853e
00000270: 9712 2dbe d78a 743d f4c5 3cbe a2b7 ac3e
00000280: 4006 94bd c944 9ebd 9484 7a3b 2f9b 463e
00000290: ed91 133e c362 8bbd a950 85bd cf94 e93d
000002a0: 33d0 6abe 30dd e53d cf16 85bc e4e8 d1bd
000002b0: ee77 5fbe c760 ecbd 119b 14bd e05a c43c
000002c0: d089 ef3e f052 293e b1e9 b13e 3d52 c1be
000002d0: 2e58 8cbd 3321 afbd 3015 89be d097 9c3d
000002e0: dc02 3e3e 8fb1 c7bd a238 22be 610e ed3c
000002f0: b53b 523e b363 d4bd 3bc4 22bd 494f 853e
00000300: fa1d 4a3e cfb4 ad3e 5c54 8a3e f83e 9e3e
00000310: 1be9 28be 37cc cebe f2ed 683d 25bf bf3d
00000320: 716d 0ebe 195c f6bd 2822 67be a2ed 62be
00000330: a01d 2fbd 9bcc b23d 53d0 19be f485 32be
00000340: b68c c13d 4e67 463d b03a df3d 7dcc 0dbe
00000350: d65d 5a3d 525e ccbd 6393 673e ccad 043e
00000360: 553f 1ebe e685 b53d 55ae 423e d23d 1cbc
00000370: dc4b 5e3b 15a8 bebd ec44 d2bd f86f 173e
00000380: a4a6 373e 909a 5c3e 3d94 943b ab04 b6bc
00000390: ee4d ee3b a223 063e 81e5 50bd 40c8 c23d
000003a0: 49ec 7e3c 1eeb c9bd 33c5 113e bdbc bb3c
000003b0: fdf1 7f3d d6e7 4dbc 3085 973d 2913 78bd
000003c0: 6630 573d 71e0 b8bd 0c73 503d f541 02be
000003d0: 5065 f7bc fc84 8dbe 86da 57bd 38d1 53be
000003e0: 8df5 cbbd d3dc 9dbd 9239 76be 40e6 62be
000003f0: 9dfa 423e fcc4 3c3d cf0e f3bd 3260 8bbe

generator_fc.bias f4 [40]
-0.05214489 0.28409442 0.11873184 0.022826333 0.038648035 0.17134596 -0.15741323 0.13039096
0.23612812 0.1234675 0.06841965 0.030231426 0.12345232 -0.16200602 -0.15104347 -0.026453277
-0.10428189 0.071575135 0.11273552 0.16856438 0.08603623 -0.13122867 -0.0028033687 0.19611757
0.024809148 -0.12849769 -0.14512193 0.1814106 0.23713878 -0.08656708 -0.021646488 0.091221355
-0.030699909 0.115233526 0.16603065 -0.22524962 -0.17109384 0.16052046 -0.06282752 -0.22167405
00000000: e195 55bd d374 913e ae29 f33d 4afe ba3c
00000010: 674d 1e3d 5175 2f3e ef30 21be 3585 053e
00000020: 92cb 713e 87dc fc3d 9a1f 8c3d e5a7 f73c
00000030: 92d4 fc3d e8e4 25be 24ab 1abe 8bb4 d8bc
00000040: be91 d5bd fc95 923d e1e1 e63d 249c 2c3e
00000050: c333 b03d cf60 06be b9b8 37bb 0bd3 483e
00000060: 8e3c cb3c e694 03be d89a 14be b3c3 393e
00000070: 82d4 723e 154a b1bd fa53 b1bc 43d2 ba3d
00000080: 607e fbbc 8eff eb3d f003 2a3e d6a7 66be
00000090: 3933 2fbe 7a5f 243e b7ab 80bd 86fe 62be
